parameters/task2_flgcn_task2_12.8007.pt (torch, 23429 bytes, 3 tensors)

lin1.weight f4 [128, 40]
00000000: 0319 733d 8ce8 1ebd 7bf3 0dbe a416 c1bd
00000010: 7bd1 edbd 9267 1cbe 905a 0cc0 2590 b3bc
00000020: 549c 8cbd 9af4 4e3e 7d1b 093d 16da e9bf
00000030: 6b15 d03d daf5 0bbf fbc7 2cbe 1292 593c
00000040: 9688 0ec0 b63b 0e3e ae3c 3bbe 82f8 843d
00000050: 8615 a1bb 2b55 b7bc 8f24 b7bd 2f76 23be
00000060: 93d3 10be be92 0bc0 2676 733e a3c9 46be
00000070: 67d4 66bc b954 f8be b498 bebf 9669 983e
00000080: f6f2 393e 1581 58bd 87fc 32bf feb0 ccbf
00000090: 8b31 d33e 122f 513e 0f05 e83d 1df2 34bf
000000a0: 0212 c23d cd08 e4bd 2600 8d3d d77a 9a3d
000000b0: 8e85 c73d 9b3f 20bc d592 0f40 f7a7 30be
000000c0: 4fdb 083e b59c c9bb e197 653d b86d e83f
000000d0: 8a7d d13c 46f3 de3e 8550 14bd a664 853d
000000e0: 667e 0140 73af de3c 9200 333e 745a 6c3c
000000f0: b4e1 5abd 73db 37be b94e ffbc 0f53 69bd
00000100: ac3f 86bd d31a 1140 7e60 42be 0425 f43d
00000110: ae1f 61be 765e bd3e cf30 ab3f 8b74 a8be
00000120: f490 89bd d4ba 223d a737 c53e 5671 c43f
00000130: 050f 73be 5493 b93d 0e61 24be fc42 d83e
00000140: 017e debe 5768 1bbe 34f8 753d 9865 093e
00000150: c6d5 37bf b64e 66bc 60b3 babf 8b55 8dbc
00000160: c2f6 63bd 71e2 c7be 3069 19bd d512 a7bf
00000170: 0bd3 7ebd bb72 9ebd 8c23 00bf 7c2a a4bd
00000180: 6869 9dbf da55 6c3d 2429 b13d 4bb4 8ebe
00000190: 4a1a 723d 4241 fe3d 83ce 6ebd 27c3 08be
000001a0: 9a7d a4bc 6e23 b6bf 0833 9b3d ad1f 08be
000001b0: 12f9 c83d 7d25 edbe 50b0 4cbf 6ad9 9c3e
000001c0: 9725 073e 485d fdbc 478e 07bf 07ab 8abf
000001d0: bd5a 023e 5608 983d 6e6a 373e 9c4f 98be
000001e0: afcd 95bd 00ed 1e3e 3ae7 00bc f7a8 e0bd
000001f0: dfca b63d bd2f e23d 05bf dcbd b0bd e5bd
00000200: e988 703d 9057 12be 9559 a23d 4595 39bd
00000210: 135d 8dbd f8c1 80bd c40e cb3d b2a5 a5bd
00000220: 37a3 c7bb 3e66 9a3d c91d 01be c071 45bd
00000230: cb1f fabd 839c 32be 2878 7abd 920e 21bc
00000240: 0a12 0a3e b80f 0abe 323f 94bd a6cb 833c
00000250: 1731 073d f042 1b3e 0ce1 bcbd d947 87bd
00000260: 4784 3a3c 0c9c 1dbe 4b1b 243e 8836 f7bd
00000270: 088e 923d 0977 d43c e13b 93bd d588 fc3d
00000280: af0d 853e 8536 ee3d 6789 723d f380 bcbd
00000290: 81c4 f03d 82e3 0d3e 42ff 0240 dab7 b83d
000002a0: 388f 9a3d 5693 efbc 8856 1d3d c8ea c83f
000002b0: db38 b0bd 269f 073f 24a1 1dbd 2769 11bd
000002c0: 9102 f53f 4e8c eabd 47b4 f03d 7c77 1c3d
000002d0: c428 993c e49a 87bd 6167 56bc 9b38 e8bd
000002e0: 5b9e aabd 8b5e f83f a8dc 54be 4883 c33d
000002f0: 7728 9fbd 05ec 813e 6000 8e3f d689 9dbb
00000300: ccd6 b33d 004d a83d fd4a 123f 7022 b53f
00000310: 0fa8 08be e342 2ebe 6a21 c1bc 00de 823e
00000320: 106f e9bc aab2 ea3d 0ee6 913d 1929 0f3e
00000330: c4db 093e 1d16 9f3d 2773 0640 1bb0 d63d
00000340: 2dc8 213d f8e3 15bd 2c17 d3bc e66f b63f
00000350: 57e8 b4bd 09ca 6a3e 0802 ffbc f1db e03c
00000360: 7de4 0140 0532 d03d 3f8a 84be 4cd8 043d
00000370: 35bc d33d 06df 5dbe 9376 9a3d a0e2 8ebd
00000380: bb22 eabd 93e5 f23f 2864 2cbe 556a 60bd
00000390: 280a 7ebd 9a62 2b3e de54 573f 7d72 84bd
000003a0: d76f 26be ff4d 13be 9850 233e e411 9b3f
000003b0: 019a a4be 595b afbb a909 57be 45d0 ad3d
000003c0: c058 e33c b90a cebd f0ba 18bc 3fe8 f6bd
000003d0: 701d c3be 0e02 f73c 069c 1cc0 6d03 89bc
000003e0: a6db 88be 4734 203e 037d cb3d 2dc6 04c0
000003f0: 2759 413d 2d05 d2be 0eb4 1cbe 27b7 2f3e
0.059350025 -0.038795993 -0.13862412 -0.094281465 -0.11612221 -0.15273884 -2.1930275 -0.02191932
-0.06865755 0.20210496 0.03347348 -1.826968 0.10160335 -0.54672015 -0.16873161 0.013279455
-2.2270865 0.13889965 -0.18284866 0.064927116 -0.004915896 -0.022379478 -0.0894252 -0.15963052
-0.14143209 -2.1808314 0.23775539 -0.19412856 -0.014088727 -0.48502138 -1.4890351 0.29768056
0.18159088 -0.052857477 -0.69916576 -1.5991514 0.41248736 0.20428112 0.1132909 -0.70681936
0.09476091 -0.11134491 0.06884794 0.07542961 0.097422704 -0.00978079 2.243337 -0.17251574
0.1336491 -0.006152714 0.056053046 1.8158484 0.025572557 0.43544978 -0.036209602 0.06513338
2.0233397 0.02718327 0.17480686 0.014425863 -0.053437904 -0.17954807 -0.031165468 -0.056963976
-0.06555113 2.2672622 -0.18982121 0.11921123 -0.21984741 0.3698613 1.337427 -0.32901415
-0.06717101 0.039728954 0.38519022 1.5347087 -0.23736198 0.09061304 -0.16052648 0.42238605
-0.43455508 -0.15176521 0.060051158 0.13417661 -0.7181057 -0.014056852 -1.4585991 -0.017252704
-0.05565525 -0.3903995 -0.03745383 -1.3052622 -0.062212985 -0.07736727 -0.5005424 -0.08015916
-1.2297792 0.057699062 0.08650425 -0.27871928 0.059107102 0.12414791 -0.058302414 -0.13355695
-0.020079423 -1.4229562 0.07578093 -0.13293333 0.098131314 -0.46317664 -0.7995653 0.30634624
0.13197933 -0.030928269 -0.52951473 -1.0833443 0.12729926 0.07423465 0.17911693 -0.29748237
-0.07314622 0.15520096 -0.007867629 -0.109697275 0.08925413 0.110442616 -0.107786216 -0.11217821
0.058724318 -0.14291215 0.07927243 -0.04530837 -0.06902518 -0.062869966 0.09914926 -0.080882445
-0.006092455 0.075390324 -0.12609018 -0.048204184 -0.12213095 -0.17442517 -0.061149746 -0.009830134
0.13483444 -0.13482559 -0.07238616 0.016088318 0.0330058 0.15162253 -0.09222612 -0.06605501
0.011384076 -0.15391558 0.16026036 -0.12070948 0.071559966 0.025935667 -0.07189155 0.12330786
0.25987002 0.116314925 0.05921307 -0.092042826 0.1175623 0.13856319 2.0468297 0.09019442
0.07546848 -0.02924506 0.0384126 1.569665 -0.08604594 0.52977216 -0.038483754 -0.03550067
1.9141408 -0.11452542 0.11753135 0.038199887 0.018696196 -0.0662134 -0.013086171 -0.11338922
-0.08330985 1.9403852 -0.20787299 0.09546524 -0.0777139 0.2537538 1.1093864 -0.004807691
0.08781204 0.082178116 0.57145673 1.4151134 -0.1334536 -0.17017703 -0.023575503 0.25559998
-0.028495342 0.11459859 0.071239576 0.13980521 0.1346274 0.0776789 2.1007783 0.10482808
0.039497543 -0.03659436 -0.025767885 1.4252899 -0.08833378 0.22928633 -0.031128898 0.027448626
2.0295708 0.101657905 -0.25886723 0.03243284 0.10338632 -0.21667108 0.075421475 -0.06976819
-0.114324056 1.897631 -0.16835082 -0.054788906 -0.062021405 0.16736832 0.8411387 -0.064671494
-0.16253601 -0.14385222 0.15948713 1.2114835 -0.32148746 -0.0053514657 -0.20999779 0.0848699
0.02775228 -0.10060639 -0.009321913 -0.12056016 -0.38108397 0.030152347 -2.447023 -0.016725266
-0.26730078 0.15644942 0.099359535 -2.0745957 0.047204163 -0.41019574 -0.1530306 0.17159711

lin1.bias f4 [128]
00000000: aa5b 88bc 6332 2bbd 1fa9 93bd 3b6d cc3d
00000010: cbf7 dfbd 5278 a53d 5da5 0d3d bdf4 cebc
00000020: d87d 24be 85d7 373d a1ca 82bc 123e 89bd
00000030: 2fe5 983d 93a3 683d 59d5 c7bd cdb5 43bd
00000040: dcbc 4bbe 4b2e 393d ece4 0e3e f286 aebd
00000050: 93e9 ab3b d444 15bd 8f12 f8bd cb4e 103e
00000060: 5f38 80bd 3dfe 1f3e a447 d0bd 0379 7dbd
00000070: 2b2d 963d 07dd 1b3d 90bc 15bd 180a 21bd
00000080: 5da6 203e 71cb 023e 6396 283e 58d7 38bc
00000090: f06d 4b3d 99ea 18be eab8 b8bb bd7c 80bd
000000a0: 8b66 a73c 5d48 5b3d ea83 913d 2180 51be
000000b0: bf0c ea3c a07f 95bd c185 4ebd b182 d0bd
000000c0: 5a27 a9bd 863b e2bd 1646 09be a6fd 32bd
000000d0: 1d48 18be a528 54bd c1a7 773d abc4 2ebe
000000e0: 9a2b 9e3d 6d5d 54bb ecd2 b7bd b636 513d
000000f0: 6d50 0dbe dfaa 253d 0f79 033e 8d31 123e
00000100: b6cd acbd 7c13 13bd 1d7a 7cbd bbc4 45be
00000110: 6bc4 ac3d d4ec 153d 06b3 bd3d bc5c aebd
00000120: 7ae8 9bbd cafb 3c3e 5df1 b9bc 3711 1e3e
00000130: 8068 cfbd f80b f93d 9cb6 2ebe 963e 893c
00000140: 875e d23d 1d0e e0bd 6e19 62bd 5d56 213e
00000150: 574e 11be 5bd8 87bc 246f 18be 2d2d cd3d
00000160: 499d acbd 7204 76be c25c bd3d 81e0 423d
00000170: 8c59 bc3c 4dd5 4fbe 0343 23be dd85 16be
00000180: fac4 11bc 68bc 1fbe fdd6 f63b 371d a1bd
00000190: e8aa 88bc 895b fe3d 8ef6 aa3c ab4d 843d
000001a0: 81d6 b5bd 1bcc 193c 768c 86be fd10 4ebd
000001b0: f975 2a3e a331 d3bd d402 ba3d adcf 793d
000001c0: 726a cf3d 99bf c03d 685d 483e fa1e fc3d
000001d0: 6a44 253d f349 773d 1523 d5bd 5ed9 08bd
000001e0: 0833 29be e6f4 543d c841 12bd 8a96 c53c
000001f0: 8b11 01bb 862a 483d 0af0 db3d 72a1 f8ba
-0.016645271 -0.0417961 -0.07209992 0.099817716 -0.10935935 0.0807959 0.03458153 -0.025263185
-0.1606363 0.04488327 -0.015965762 -0.06701292 0.07465588 0.05679662 -0.0975749 -0.0477808
-0.19896263 0.045210164 0.13954514 -0.085218325 0.00524635 -0.036442593 -0.12112915 0.14092557
-0.06260752 0.15624328 -0.10169914 -0.061882984 0.07332834 0.038052585 -0.03655678 -0.039316267
0.15688463 0.12772919 0.16463618 -0.011281811 0.04966539 -0.14933242 -0.005637278 -0.06273792
0.020434638 0.053535808 0.07105239 -0.20459034 0.028570531 -0.07299733 -0.050420526 -0.101811774
-0.08259459 -0.110465094 -0.13405642 -0.04369893 -0.14871259 -0.051796574 0.060462717 -0.1706721
0.0772316 -0.003240432 -0.08975777 0.051077567 -0.13800211 0.04044616 0.12839149 0.14276715
-0.08437674 -0.035907254 -0.061639894 -0.19313328 0.08435901 0.03660281 0.09262662 -0.085137814
-0.07612701 0.18455425 -0.022698099 0.15436254 -0.10127354 0.12160486 -0.17061847 0.016753476
0.10271936 -0.10940192 -0.055200033 0.15755601 -0.1419004 -0.016582659 -0.14886147 0.10018382
-0.08428437 -0.24025133 0.09246208 0.047577385 0.022991918 -0.20296212 -0.15943532 -0.14699502
-0.0088970605 -0.15599215 0.007532953 -0.078669004 -0.016683057 0.12419803 0.02086952 0.064601265
-0.08878804 0.009387041 -0.26279038 -0.05030917 0.16646565 -0.10312202 0.09082571 0.06098907
0.10127725 0.09411544 0.19566882 0.12310596 0.040348448 0.060373258 -0.10407082 -0.033410423
-0.16523373 0.051991366 -0.035707265 0.024119634 -0.0019694294 0.04886868 0.10739143 -0.0018969013

lin2.weight f4 [1, 128]
00000000: 282b 85be 6a0a 173e 5c81 c1bd 0e7d 2c3d
00000010: 7a1b 633e 9682 973d 5eda cabe 21e5 ea3d
00000020: 737f 8c3d b57f 003f 36e2 fcbe adad 18be
00000030: 2778 9ebe 0bb5 94be a173 20bf b41e 643c
00000040: 6571 17bc c82f 173e 2f26 eebd 6def b2be
00000050: d02f a5b9 2c64 23bf 762b 04bf 8547 c7be
00000060: 5811 0bbf 5133 a1be 34a4 6b3e d9e8 283b
00000070: 43f3 a03e bf2e b8bc 385f ed3d 638d 31be
00000080: 9883 f43e a9c7 093e f40b 2a3e 377b c6be
00000090: aa38 53be 3ec7 d5be 7368 bdbd 8b54 663d
000000a0: 7ab0 2f3e 664e ce3e 9154 783e 97d8 21bf
000000b0: c489 a53e b006 2cbd 57d8 f1bd 140e 63bc
000000c0: b5d7 55bd 1abe a83d ebdb 17be 520a 493d
000000d0: fa9c 16be ae3d cb3e 5147 083e a561 35be
000000e0: f3f4 72be 47f8 bf3c 6145 ffbd e12b 94be
000000f0: a8bc e13d 30a1 8abe a379 983e 2336 f2be
00000100: ea83 873e c8af edbe 283a f3be 4631 40bf
00000110: 645d 623c 456c 1ebe a458 7d3d 8429 4bbd
00000120: 06c3 2c3d 3d60 53be 7d6e 5fbe ae39 073f
00000130: 4efa 3ebf 891c 44be 5df2 3ebd 6139 febd
00000140: f211 bb3d 408d 7dbd 6a43 ad3e 19fc 013e
00000150: 3d74 673e 5edb 253f 0f9a 673c 76e1 febd
00000160: c04d 83be 2ee5 35bf 2522 cf3d 5985 cf3d
00000170: be7e acbd 6a5b a3be fb8c dcbe e018 3cbe
00000180: e14a 413e 5896 2c3d 9007 4dbf 10a1 c4bd
00000190: 5760 633e e456 1e3d 3f24 64bd 348a 06be
000001a0: 7034 5f3d 02d2 bf3e 8ae3 2cbf ec4f 87be
000001b0: 8264 09be 3f45 d8bc 226a c3bd 676a 0abf
000001c0: 2ff5 6d3e 7a14 a9be 446c 193f a380 d8bd
000001d0: 3201 08be 6c44 e53e 1db3 2b3e 7a48 15be
000001e0: e68d 2cbf 0a73 8e3e 8a95 1abd 7e2f 22be
000001f0: e9a7 50bb ca7a afbd 0fa8 0bbe bbb8 82bc
-0.26009488 0.14750066 -0.094485015 0.04211145 0.2217845 0.07397954 -0.39619726 0.11469484
0.068602465 0.50194865 -0.49391335 -0.14910002 -0.30951044 -0.29044375 -0.62676436 0.013923336
-0.009243344 0.14764321 -0.11628377 -0.34948292 -0.00031506876 -0.63824725 -0.51628816 -0.38921753
-0.5432334 -0.31484464 0.23011857 0.0025773554 0.31435594 -0.022483228 0.11590427 -0.17339091
0.47756648 0.1345507 0.16606122 -0.3876588 -0.20627084 -0.41753572 -0.09248438 0.05623297
0.17157164 0.40294188 0.2425101 -0.63221115 0.3233167 -0.041998565 -0.11808842 -0.013858337
-0.052207667 0.08239384 -0.14829986 0.049082108 -0.1470832 0.39695495 0.13308455 -0.1771303
-0.23726253 0.023433818 -0.12464405 -0.28939727 0.110223114 -0.270761 0.297803 -0.47306928
0.2646783 -0.46423173 -0.47505307 -0.75075185 0.013816211 -0.15470989 0.061852112 -0.04960014
0.042178176 -0.2064218 -0.21819492 0.5282239 -0.74600685 -0.1915151 -0.046617854 -0.12413288
0.09134282 -0.061902285 0.33840495 0.12693824 0.22602935 0.6478785 0.0141358515 -0.12445347
-0.25645256 -0.71052825 0.101139344 0.10132856 -0.08422612 -0.3190568 -0.4307631 -0.18368864
0.1887622 0.042135566 -0.80089664 -0.09601033 0.2220472 0.038657084 -0.05569863 -0.13138658
0.054493368 0.3746491 -0.675347 -0.26428163 -0.13417247 -0.026400207 -0.095417276 -0.5406861
0.23238061 -0.33023435 0.59930825 -0.105714105 -0.13281706 0.44778764 0.16767545 -0.14578429
-0.6740402 0.27822143 -0.037740268 -0.1583843 -0.0031838364 -0.08568342 -0.13638328 -0.015957227
