parameters/task1_fgat_task1_0.9307.pt (torch, 204017 bytes, 27 tensors)

convs.0.attn f4 [1, 4, 3]
0	0x3e9fa8a2	0.31183344
1	0xbbd8aa37	-0.006612088
2	0xbe458928	-0.19290602
3	0x3f406959	0.7516075
4	0xbb82fccd	-0.0039974214
5	0xbf1621b0	-0.58645153
6	0x3f4b4811	0.7940684
7	0x3fa5e2d4	1.2959847
8	0xbf1b08e3	-0.60560435
9	0x3f81506a	1.0102665
10	0xbfa6363c	-1.2985301
11	0x3ba7dc5d	0.005122705

convs.0.bias f4 [12]
0	0x3d5ca950	0.053872406
1	0xbe0e69eb	-0.13907592
2	0x3dc53adb	0.096303664
3	0xbe24cbb6	-0.16093335
4	0xbe4e7c39	-0.20164575
5	0x3e8b613e	0.27222627
6	0x3d5fafc3	0.05461098
7	0x3f1d4d23	0.61445826
8	0x3e790cab	0.24321239
9	0x3de3ce2a	0.11123307
10	0x3e7edc6e	0.24888775
11	0xbe9a8ffb	-0.30187973

convs.0.fc_node_src.weight f4 [128, 5]
0	0xbd6bcd71	-0.05756897
1	0x3eaac8ab	0.33356223
2	0x3dd67382	0.1047125
3	0x3c3c548e	0.011494769
4	0xbed67998	-0.41889644
5	0xbdd8e53d	-0.10590599
6	0xbdee9661	-0.11649776
7	0xbd092a5f	-0.033487674
8	0x3e65787a	0.2240924
9	0xbe0a5f76	-0.13512978
10	0xbe08ea80	-0.13370705
11	0x3ecfd3fa	0.40591413
12	0xbdf837b8	-0.121200025
13	0xbe37b300	-0.17939377
14	0x3ebef34c	0.37294996
15	0xbd9b2186	-0.075747535
16	0x3f09af94	0.53783536
17	0xbd6c8fd4	-0.057754353
18	0x3e1088e7	0.14114724
19	0xbe4d830b	-0.2006952
20	0xbee4f8d9	-0.44721106
21	0xbd8185ee	-0.06324373
22	0xbe0efe69	-0.13964237
23	0xbe500b42	-0.20316795
24	0x3e05132d	0.12995596
25	0x3c167382	0.009182813
26	0xbe30ea57	-0.17276894
27	0x3de27f65	0.11059455
28	0x3d54ea1c	0.051981077
29	0x3e578169	0.2104546
30	0x3e62940b	0.22126786
31	0x3f21899d	0.63100606
32	0xbe7a6df1	-0.24456002
33	0xbd378b9b	-0.044810873
34	0xbe747e9c	-0.23876423
35	0xbecae977	-0.39631245
36	0x3de574a9	0.11203892
37	0x3e586f43	0.21136193
38	0xbd045e2c	-0.03231637
39	0xbd822cbd	-0.063561894
40	0xbe5cf8f5	-0.21579345
41	0x3e115244	0.14191538
42	0x3e693c78	0.22776973
43	0xbe3d6970	-0.18497252
44	0x3e06e272	0.1317232
45	0xbdcc36ee	-0.099714145
46	0xbe97eb93	-0.29671916
47	0xbe987d18	-0.2978294
48	0xbe2e3621	-0.17012836
49	0x3e3b2a19	0.18277778
50	0xbe648118	-0.2231487
51	0x3ef606ea	0.4805215
52	0xbdeeb845	-0.116562404
53	0xbd3370e7	-0.043808844
54	0x3daa3b7f	0.08312129
55	0xbd821408	-0.06351477
56	0x3f05fc07	0.5233769
57	0x3db23d29	0.087030716
58	0xbedf20b3	-0.43579635
59	0x3e981858	0.29706073
60	0xbdb514b7	-0.08841842
61	0x3de80343	0.11328747
62	0xbe35c3b7	-0.1775044
63	0x3e34e3fb	0.17665093
64	0xbe91f2e7	-0.28505632
65	0xbecfa516	-0.40555638
66	0xbedf16f1	-0.4357219
67	0x3b91f99f	0.004454806
68	0x3eee4c31	0.46542504
69	0xbe3fef72	-0.18743685
70	0xbdd22768	-0.102614224
71	0xbe1121df	-0.14173077
72	0x3d5735ca	0.05254153
73	0xbe81e19c	-0.2536744
74	0x3dbf3aac	0.09337363
75	0xbe3ca320	-0.18421602
76	0x3d36ba36	0.04461118
77	0x3d9250ab	0.071442924
78	0xbdbb5491	-0.09146989
79	0xbab796a6	-0.0014006689
80	0x3db7b022	0.089691415
81	0xbe365f5f	-0.17809819
82	0xbd9d7839	-0.07688946
83	0x3e603460	0.2189498
84	0x3dfd3e08	0.12365347
85	0xbc366778	-0.011133067
86	0xbbaadac1	-0.005214066
87	0x3ef69171	0.48157838
88	0xbe7ee93e	-0.24893662
89	0xbf12e59e	-0.5738162
90	0xbea9ea31	-0.33186486
91	0x3d0939a2	0.03350223
92	0x3d50fb40	0.05102086
93	0xbe0c7a91	-0.1371863
94	0x3e826171	0.25464967
95	0xbd7fab38	-0.062419146
96	0x3e5af2f0	0.21381736
97	0x3e519f0b	0.20470826
98	0x3e61f588	0.22066319
99	0x3b84ee83	0.004056753
100	0x3e8617a2	0.26189905
101	0xbe8328f7	-0.2561719
102	0x3e394031	0.18090893
103	0x3d545bc6	0.051845334
104	0xbe25f314	-0.16206008
105	0xbcb9ce86	-0.022681486
106	0xbe51877a	-0.20461836
107	0xbec0fb87	-0.376919
108	0x3d278b93	0.040904593
109	0x3e5681df	0.2094798
110	0x3d90516e	0.070467815
111	0x3e9faa01	0.3118439
112	0x3ddb3238	0.10702938
113	0x3e9b8329	0.30373505
114	0xbe914a65	-0.2837707
115	0xbf3910a6	-0.7229103
116	0xbea8a70e	-0.32939953
117	0x3e1fd5aa	0.1560885
118	0x3eb332b8	0.34999633
119	0x3e8952da	0.26821023
120	0xbc2265d4	-0.009911973
121	0x3ed3e1af	0.4138312
122	0xbeaacf28	-0.33361173
123	0x3d787578	0.060658902
124	0xbe2bbfab	-0.16772334
125	0xbe104e49	-0.14092363
126	0x3cc41a41	0.0239383
127	0xbe52e6b1	-0.20595814
128	0x3ec00b34	0.37508547
129	0xbdb4b60b	-0.088237844
130	0x3d8445ad	0.06458602
131	0xbcf0b337	-0.029382331
132	0x3dac5644	0.08414891
133	0x3e2948f8	0.16531742
134	0x3e96cf72	0.29455143
135	0x3e313197	0.17304073
136	0xbdeb24e1	-0.114816435
137	0x3e2ba5bd	0.16762443
138	0xbdd624f2	-0.104562655
139	0xbe16ac86	-0.1471425
140	0xbe506748	-0.20351899
141	0xbcf3fe63	-0.029784387
142	0xbe37e450	-0.17958188
143	0x3d11d818	0.035606474
144	0xbd1c014e	-0.03808718
145	0xbe115de9	-0.1419598
146	0xbcb16a26	-0.02165706
147	0xbcc51451	-0.02405754
148	0x3e503b34	0.20335084
149	0x3d883f50	0.06652701
150	0xbe1a96b4	-0.15096551
151	0x3b6c2c12	0.003603701
152	0xbe87af62	-0.26500994
153	0x3dc25a0f	0.094898336
154	0x3ea0d3ac	0.31411493
155	0x3cc6040b	0.02417185
156	0x3d7f59f1	0.062341634
157	0x3db54e3f	0.08852815
158	0xbe6acdc8	-0.22930062
159	0xbe40824a	-0.18799701
160	0x3ede5092	0.43420845
161	0x3da71b18	0.081594646
162	0x3df8ea9a	0.12154122
163	0xbd8169d5	-0.06319014
164	0xbe4eb0a9	-0.20184578
165	0x3e4c4220	0.199471
166	0xbed31ca3	-0.41232786
167	0x3bce3ca1	0.0062938486
168	0x3e5c5022	0.21514943
169	0xbe02f232	-0.12787703
170	0xbe53c8fb	-0.20682137
171	0x3ee5773b	0.44817528
172	0xbcc0323e	-0.023461457
173	0xbebadf75	-0.3649861
174	0xbea5c5c3	-0.32377443
175	0xbe021079	-0.12701596
176	0xbe02797a	-0.12741652
177	0x3eb15071	0.34631684
178	0xbd8b488d	-0.06800947
179	0x3ddf98bd	0.109178044
180	0xbf2349b9	-0.63784367
181	0x3f07c2a6	0.53031385
182	0x3cd74e65	0.026282499
183	0xbebd4c62	-0.36972338
184	0x3f24171b	0.64097756
185	0xbd910a6a	-0.070820644
186	0xbd4a2d45	-0.04935958
187	0x3dc5590a	0.096361235
188	0xbda651d3	-0.081210755
189	0x3ebbc50d	0.36673775
190	0x3ef2c080	0.4741249
191	0x3edf17dc	0.4357289
192	0xbe30ef31	-0.17278744
193	0xbe6885b8	-0.2270726
194	0xbe88fdc4	-0.26756108
195	0xbf116aae	-0.56803405
196	0xbd6ae331	-0.057345573
197	0x3eab0a5f	0.3340635
198	0xbe92f0d6	-0.28699368
199	0x3e792250	0.24329495
200	0xbe72dd04	-0.23717123
201	0x3ea69dd7	0.32542297
202	0xbe32ede5	-0.17473562
203	0x3e76b3cf	0.24092029
204	0x3d4d307d	0.05009507
205	0x3df73e4e	0.120724306
206	0xbe43de3e	-0.19127747
207	0x3d016cc6	0.031597875
208	0xbca8139e	-0.020517167
209	0x3e5ae886	0.21377763
210	0xbe5a9d1f	-0.21349
211	0x3e4edbae	0.20200989
212	0x3e4a38d3	0.19748239
213	0xbe3e2782	-0.18569759
214	0x3dbbea79	0.091755815
215	0xbf1a8bc3	-0.6036951
216	0x3e225845	0.15853985
217	0x3e128470	0.14308333
218	0xbdcfb0bb	-0.101411305
219	0x3d7dfeaa	0.062010445
220	0xbe31b4c2	-0.1735411
221	0xbde6e334	-0.11273804
222	0x3e779d49	0.24181093
223	0xbdcc4a85	-0.09975151
224	0xbde68946	-0.112566516
225	0x3d41f9b0	0.04735726
226	0xbe17a092	-0.14807346
227	0xbdb9c970	-0.09071624
228	0xbe6c3d10	-0.23070168
229	0xbdb35634	-0.08756676
230	0xbd98efcc	-0.074676126
231	0xbe81ecf2	-0.25376087
232	0x3e319cea	0.17345014
233	0x3d907837	0.07054179
234	0x3da583c4	0.08081773
235	0xbf04f214	-0.5193188
236	0x3dc9461a	0.09827824
237	0x3e136003	0.14392094
238	0xbd785a35	-0.060632903
239	0xbdb841d8	-0.08996934
240	0xbd82514f	-0.06363165
241	0xbeb27012	-0.34851128
242	0xbd7b35d0	-0.061330616
243	0x3cf2ae17	0.029624028
244	0x3e8fef78	0.28112388
245	0x3e4e9ebc	0.2017774
246	0xbe7be222	-0.24597982
247	0x3db5a4ab	0.088692985
248	0xbdb896ee	-0.090131626
249	0xbde04cef	-0.10952174
250	0xbeacf9eb	-0.33784422
251	0xbece1fba	-0.4025858
252	0x3de54455	0.11194674
253	0xbef07c37	-0.46969768
254	0x3e7a4f68	0.24444354
255	0x3e42bbaa	0.190169

convs.0.fc_ni.weight f4 [12, 5]
0	0x3ddc7db5	0.10766164
1	0x3e794a6b	0.24344794
2	0xbe8dc659	-0.2769039
3	0xbfb94987	-1.4475564
4	0xbeeeeeed	-0.4666666
5	0x3eb8d090	0.3609662
6	0x3e388b53	0.18021898
7	0xbe0e323d	-0.13886352
8	0x3e4b6c03	0.19865422
9	0x3e1ddd7e	0.15416524
10	0x3eb6885f	0.35650918
11	0x3f2d942b	0.6780421
12	0xbe895a10	-0.26826525
13	0x3c9fbdc5	0.019499669
14	0xbebe2871	-0.3714023
15	0x3ed73733	0.420343
16	0x3eae7103	0.34070596
17	0xbf39c748	-0.72569704
18	0xbf330d88	-0.6994252
19	0xbd5f5fb1	-0.054534618
20	0xbdf9948b	-0.121865354
21	0x3ede5001	0.43420413
22	0x3eb53c4c	0.35397565
23	0x3e9b3760	0.30315685
24	0x3e9a6694	0.30156386
25	0xbeeddc3c	-0.46457088
26	0x3f796283	0.9741594
27	0x3e0ea95d	0.13931794
28	0x3e00de15	0.12584718
29	0x3f00d4e1	0.5032483
30	0xbdde4259	-0.108524986
31	0xbf74f591	-0.95687205
32	0x3fa9ea90	1.3274708
33	0xbee1c773	-0.4409748
34	0x3e168eb1	0.1470287
35	0xbdae9445	-0.08524374
36	0x3fca94d1	1.5826665
37	0x3f814a93	1.0100883
38	0xbf3b0177	-0.7304911
39	0x3d234785	0.03986313
40	0x3ecb069f	0.3965349
41	0x3f0e812d	0.55665857
42	0xbf010214	-0.50393796
43	0x3e8536b1	0.2601829
44	0x3e020aa6	0.12699375
45	0x3d634bc0	0.055492163
46	0xbea8baf7	-0.32955143
47	0xbeeeafaf	-0.4661841
48	0xbf32e64f	-0.69882673
49	0xbcb4fa6d	-0.022092069
50	0xbf3b4f2d	-0.7316769
51	0xbf05c5fc	-0.52255225
52	0x3f9cb96e	1.2244089
53	0x3dc18ec3	0.09451058
54	0x3f82e655	1.0226542
55	0xbe7f7fd0	-0.249511
56	0xbe735d16	-0.23765978
57	0xbe6c99a7	-0.23105489
58	0xbe719f54	-0.23595935
59	0xbe801f9a	-0.2502411

convs.0.fc_nj.weight f4 [12, 5]
0	0x3f3b0011	0.73046976
1	0x3e9c3c0f	0.3051457
2	0xbdbfa839	-0.09358258
3	0xbf266bdd	-0.65008336
4	0xbf10ece3	-0.5661146
5	0x3eb6e876	0.3572423
6	0xbeec04f4	-0.4609753
7	0xbd111211	-0.03541762
8	0xbf1e6a5d	-0.6188105
9	0x3ed24907	0.4107134
10	0x3eb7811a	0.35840684
11	0x3d1b930f	0.037982043
12	0xbd9cbeb8	-0.07653564
13	0x3f3882ac	0.7207439
14	0xbda51ff8	-0.08062738
15	0xbe09d2e5	-0.13459356
16	0x3f152d06	0.58271825
17	0xbf3716ca	-0.7151915
18	0xbf152cad	-0.58271295
19	0xbf6fb310	-0.936326
20	0xbeb2a498	-0.348912
21	0xbf0207d1	-0.50793177
22	0x3cb7b34e	0.022424366
23	0xbf5419fa	-0.8285214
24	0xbef602b3	-0.48048934
25	0x3f5ee343	0.87065524
26	0xbf1edbbe	-0.6205405
27	0xbf5fe0a3	-0.87452143
28	0x3f627ff1	0.88476473
29	0x3e60051b	0.21876948
30	0xbb6513e2	-0.0034954478
31	0xbee34d71	-0.4439502
32	0xbe96db6e	-0.29464287
33	0xbe1d1b82	-0.15342525
34	0xbf1f5cb3	-0.6225082
35	0xbefe8ae5	-0.49715343
36	0x3e03b0be	0.1286039
37	0xbf08c353	-0.5342304
38	0xbf0da998	-0.55336905
39	0xbeee57c4	-0.46551335
40	0xbd11817a	-0.03552387
41	0x3e660659	0.22463359
42	0xbf098aa6	-0.53727186
43	0x3e5e7ff8	0.21728504
44	0x3f334728	0.7003045
45	0xbf378681	-0.7168961
46	0x3eae880b	0.34088168
47	0x3f12c5e8	0.5733323
48	0x3dc32798	0.09529036
49	0x3f45e04d	0.7729538
50	0x3f072dfb	0.52804536
51	0x3da8b35e	0.082373366
52	0xbf7680a3	-0.96290034
53	0x3e0a2ac6	0.1349288
54	0x3f5f3d42	0.87202847
55	0x3e63ef62	0.22259286
56	0xbf1159ec	-0.56777835
57	0xbf0d5fba	-0.5522419
58	0xbecec789	-0.40386608
59	0xbeccc129	-0.3999112

convs.0.fc_fij.weight f4 [12, 3]
0	0x3eebdb25	0.46065632
1	0x3e506c85	0.20353897
2	0x3e92c2ce	0.2866425
3	0xbdd4c603	-0.1038933
4	0xbd1cd9f7	-0.038293805
5	0x3ec53e34	0.3852402
6	0x3f0c26f8	0.5474696
7	0xbf9afe46	-1.2108848
8	0xbe43c4f2	-0.19118097
9	0x3e9ecc1b	0.31015095
10	0x3f02981d	0.51013356
11	0x3ec26713	0.37969264
12	0xbe404b40	-0.18778706
13	0xbe837f58	-0.25683093
14	0x3e391838	0.18075645
15	0x3ed66075	0.41870466
16	0xbf1a5c60	-0.60297203
17	0xbf053917	-0.5204024
18	0x3ccdaee3	0.025107807
19	0xbfa1e134	-1.2646852
20	0xbdabd3fe	-0.08390044
21	0x3f4d3acd	0.8016785
22	0x3f70da13	0.94082755
23	0x3f57ce91	0.8429957
24	0xbfab6b5d	-1.339214
25	0xbf2c6b38	-0.673511
26	0x3e36515e	0.17804477
27	0x3f29b976	0.66298616
28	0x3ee4e6f4	0.44707453
29	0x3f5ae4e6	0.8550552
30	0x3f04fe83	0.51950854
31	0x3ee54894	0.44781935
32	0xbf9036ed	-1.1266762
33	0xbbfbc4e3	-0.007683383
34	0x38d5bbc2	0.00010191604
35	0xbbededb4	-0.0072610024

convs.1.attn f4 [1, 4, 3]
0	0xbf5a97ed	-0.8538807
1	0x3f5ed5a8	0.87044764
2	0x3ec3de20	0.38255405
3	0x3f87f02d	1.0620171
4	0xbfa9a977	-1.3254842
5	0xbfe41aae	-1.7820642
6	0xbfd16a8b	-1.6360639
7	0x3fc119a3	1.5085949
8	0xc0010fd4	-2.016591
9	0xc00adfd1	-2.1699107
10	0xbf8441ee	-1.033262
11	0x3f465e01	0.7748719

convs.1.bias f4 [12]
0	0x3e285d2d	0.16441794
1	0x3e0a5106	0.1350747
2	0xbea4feee	-0.32225746
3	0x3ef26c61	0.47348312
4	0x3ebf5596	0.37369984
5	0xbd604e8f	-0.05476242
6	0xbdd7a9b0	-0.10530412
7	0xbcb72ac4	-0.02235926
8	0x3e88e38a	0.267361
9	0xbf07474e	-0.5284318
10	0xbeabd12e	-0.3355803
11	0xbd3d323b	-0.04619048

convs.1.fc_node_src.weight f4 [128, 32]
0	0xbe456fce	-0.19280931
1	0x3e410529	0.18849625
2	0x3eb25ea4	0.3483783
3	0x3d52bc71	0.051449243
4	0x3de2843d	0.11060379
5	0x3f0651d1	0.5246859
6	0x3ec4a557	0.38407394
7	0x3e865d20	0.26242924
8	0x3c6bd43a	0.0143938605
9	0x3e88f5b5	0.2674996
10	0x3ee1655d	0.44022647
11	0xbe1da50c	-0.15394992
12	0xbe4e2292	-0.20130375
13	0x3dfeac57	0.12435215
14	0x3c6bfc12	0.01440336
15	0xbed09899	-0.40741423
16	0xbdb1cb3f	-0.08681344
17	0x3ea24d96	0.31699818
18	0x3e98d712	0.29851586
19	0xbdb1048a	-0.08643444
20	0x3e40472b	0.18777148
21	0x3e1f1d3b	0.15538494
22	0x3d2bbbf5	0.041927297
23	0xbe905076	-0.28186387
24	0xbe0f0f1e	-0.1397061
25	0xbd91f66a	-0.07127078
26	0x3ac837ee	0.0015275457
27	0x3dd7a0a6	0.10528688
28	0xbde670a5	-0.11251954
29	0x3e7d46df	0.24734066
30	0xbdbd3096	-0.09237783
31	0xbd9c45b6	-0.07630484
32	0x3d8a1eff	0.06744193
33	0x3cd69dcf	0.026198296
34	0xbda5a75e	-0.080885634
35	0xbe5abcac	-0.21361035
36	0xbe9422cd	-0.289328
37	0xbe75421d	-0.23951001
38	0x3ea002ff	0.31252286
39	0xbe3257b9	-0.17416276
40	0x3e9e6649	0.30937412
41	0x3ea25811	0.31707814
42	0x3e110c31	0.14164807
43	0xbeddad45	-0.43296257
44	0x3dd5b539	0.10434956
45	0xbdda43ae	-0.1065744
46	0xbe325d1c	-0.17418331
47	0xbeef5a91	-0.46748784
48	0xbe54468c	-0.20730036
49	0xbe3f6b8b	-0.18693368
50	0xbdc4c3a0	-0.09607625
51	0xba598736	-0.0008298041
52	0x3e99a949	0.30011967
53	0x3ea0ae50	0.3138299
54	0xbe29b18d	-0.16571636
55	0xbed03d10	-0.40671587
56	0x3e3b990e	0.18320104
57	0x3c8905a2	0.016726319
58	0x3cbcaefd	0.02303266
59	0xbe756f6a	-0.23968282
60	0x3c9924cf	0.01869431
61	0xbd875307	-0.06607633
62	0xbd87cf6a	-0.06631358
63	0xbd96f8ff	-0.07371711
64	0xbd1e2b99	-0.038615797
65	0xbe0bde18	-0.13658941
66	0x3d46f7ce	0.04857617
67	0x3e8c41e2	0.27394015
68	0xbe5eafe5	-0.21746786
69	0x3de3b6f8	0.11118883
70	0xbed5e746	-0.4177801
71	0xbdcea4f5	-0.10090057
72	0xbe8102d9	-0.25197485
73	0xbe17814d	-0.14795418
74	0xbdacf25b	-0.08444663
75	0xbdfab8dc	-0.122422904
76	0x3ed72c48	0.4202597
77	0x3d56b13e	0.052415125
78	0x3e05b5df	0.1305766
79	0x3dea501e	0.114410624
80	0xbd765051	-0.06013519
81	0x3e918392	0.28420693
82	0xbeb6db6f	-0.3571429
83	0x3e468d14	0.19389755
84	0xbd412007	-0.047149684
85	0xbe72c204	-0.23706824
86	0x3e26041d	0.16212507
87	0xbdf6fef6	-0.12060349
88	0x3dea187b	0.114304505
89	0xbb5ee728	-0.0034012292
90	0xbdcf9e98	-0.10137671
91	0xbe03af57	-0.12859856
92	0x3db259e1	0.08708549
93	0x3e7f0d58	0.24907434
94	0xbea9a1b1	-0.33131173
95	0x3e2e3235	0.1701134
96	0x3ea9eede	0.33190054
97	0xbe4b5f20	-0.19860506
98	0xbda0e981	-0.07857037
99	0x3e0feeaa	0.14055887
100	0xbe7e0095	-0.2480491
101	0xbec1a681	-0.37822345
102	0x3eb894f0	0.3605113
103	0xbe1773d0	-0.14790273
104	0xbe8a0d4c	-0.2696327
105	0xbea53ff1	-0.32275346
106	0x3ded07ad	0.1157373
107	0xbe48efa8	-0.19622672
108	0x3e4e5abb	0.20151798
109	0xbcf0eb1e	-0.029408988
110	0x3d8c127c	0.06839463
111	0xbe02da40	-0.12778568
112	0x3abe2ce5	0.0014509229
113	0x3ea9773a	0.33098775
114	0x3dffc4ac	0.12488684
115	0x3cb83599	0.022486495
116	0xbebd24dd	-0.36942187
117	0xbca1065a	-0.019656349
118	0x3e1f1551	0.15535475
119	0xbe347d36	-0.17625889
120	0x3e260947	0.16214477
121	0xbe9c9288	-0.30580544
122	0xbd989ccf	-0.07451784
123	0xbefdb493	-0.4955183
124	0x3dc65bc5	0.096854724
125	0x3dbd560d	0.092449285
126	0xbe0e5728	-0.13900435
127	0x3ea0726c	0.31337297
128	0x3ea871ea	0.3289941
129	0xbe2bd88b	-0.16781823
130	0x3d97d262	0.07413174
131	0x3e871398	0.26382136
132	0xbe587673	-0.21138935
133	0xbf0be1d4	-0.5464146
134	0x3e8fee8b	0.2811168
135	0x3df8b4f9	0.12143893
136	0x3e9a5a2f	0.3014693
137	0x3c861ead	0.01637205
138	0xbe55c771	-0.20876862
139	0x3ebe45b3	0.3716255
140	0xbd27e230	-0.040987194
141	0x3d768989	0.060189757
142	0xbb430c36	-0.0029761917
143	0x3f0f14b0	0.5589094
144	0x3e29eaed	0.16593523
145	0x3dcfec3f	0.10152482
146	0x3ccbf4f3	0.024897074
147	0xbdc723da	-0.09723635
148	0xbe311a12	-0.17295101
149	0xbd32ae12	-0.043623038
150	0xbbb63062	-0.005559967
151	0xbdc697d3	-0.09696927
152	0x3f26fe26	0.6523155
153	0x3d1fe535	0.03903695
154	0x3e6af65b	0.2294554
155	0xbde6474f	-0.1124407
156	0x3d9d2a14	0.076740414
157	0x3b7c1b63	0.0038468472
158	0xbe4e0334	-0.2011841
159	0x3b48d3ae	0.003064375
160	0x3f0473a2	0.5173894
161	0x3e3b0c1a	0.18266335
162	0x3e8c4a8a	0.2740062
163	0x3e7cd1d6	0.24689421
164	0xbeb65cca	-0.35617667
165	0xbdae7e02	-0.08520128
166	0x3e96fadc	0.29488266
167	0xbdd525cf	-0.10407602
168	0xbdee1777	-0.11625569
169	0xbe7e5495	-0.24836953
170	0x3eb0ce2a	0.3453229
171	0xbd4c241f	-0.049839135
172	0xbec72f5b	-0.38903317
173	0xbd65dc42	-0.056118257
174	0xbddd4d2c	-0.10805735
175	0x3ca46782	0.020068888
176	0xbe5a3253	-0.2130826
177	0x3f293a29	0.6610437
178	0xbe67462d	-0.22585364
179	0xbd915984	-0.07097152
180	0x3c7cafd0	0.015422776
181	0xbe909e7c	-0.28245914
182	0x3ec2359f	0.37931535
183	0xbe9eec1e	-0.31039518
184	0xbeefa2e7	-0.46803972
185	0xbea84a9a	-0.32869416
186	0x3cb7d27d	0.022439236
187	0x3dd5f99c	0.10448
188	0xbd785fd2	-0.060638256
189	0x3df60d49	0.12014253
190	0xbe6f5ee2	-0.23376039
191	0x3df9fc90	0.122063756
192	0xbd40e981	-0.047097687
193	0xbdfcfeca	-0.12353285
194	0x3eeb2aaf	0.45931002
195	0x3ddd94be	0.10819386
196	0x3d07ae62	0.03312529
197	0xbdc7124c	-0.09720287
198	0x3bc80b65	0.006104874
199	0x3e935c16	0.28781193
200	0x3d6c37a3	0.057670247
201	0xbd34985a	-0.044090606
202	0xbb05d3ab	-0.0020420353
203	0x3c1030fc	0.008800741
204	0xbeb88607	-0.36039755
205	0x3daa2443	0.083076976
206	0x3e6f37a7	0.23361073
207	0xbe03ed1e	-0.12883422
208	0x3e439380	0.19099236
209	0xbc76675b	-0.01503929
210	0x3d54fb05	0.051997203
211	0xbeb33867	-0.3500397
212	0xbca946ce	-0.020663645
213	0x3d7e9591	0.062154356
214	0xbe30d205	-0.17267616
215	0xbcd317cc	-0.025768183
216	0x3e47e50a	0.19520965
217	0xbddeb164	-0.10873678
218	0x3dd71bc3	0.10503342
219	0x3e47202a	0.19445863
220	0x3d3e3a09	0.046442065
221	0xbe273d6b	-0.16332023
222	0x3dea251a	0.11432858
223	0x3db4a89e	0.08821224
224	0xbdedb9a0	-0.11607671
225	0x3da426cd	0.08015213
226	0x3e36a0d3	0.17834787
227	0xbda67a7a	-0.08128829
228	0x3e673898	0.22580183
229	0xbe10cfcc	-0.14141768
230	0x3e695c87	0.22789203
231	0x3e114d66	0.14189681
232	0xbe38f1ba	-0.18060961
233	0xbe04f151	-0.1298268
234	0xbe3b3117	-0.18280445
235	0x3e139828	0.14413512
236	0xbe9016f9	-0.28142527
237	0x3ceca4c9	0.02888717
238	0xbe8a364f	-0.2699456
239	0xbe7daec6	-0.24773702
240	0x3dcc1206	0.09964375
241	0x3ecb2dc7	0.39683363
242	0xbdb0b2b1	-0.08627833
243	0xbbd62a76	-0.0065358235
244	0x3bb85107	0.0056248936
245	0xbd36b10d	-0.044602443
246	0x3e2c514c	0.16827887
247	0xbe727437	-0.23677145
248	0xbea7b448	-0.3275473
249	0x3c886691	0.01665047
250	0x3d9e8ba2	0.077414766
251	0xbe2768c1	-0.16348554
252	0x3dfe1819	0.1240694
253	0x3c363138	0.011120133
254	0xbc8ee782	-0.017444376
255	0xbe2a3753	-0.16622667

convs.1.fc_ni.weight f4 [12, 32]
0	0x3e066828	0.1312567
1	0x3ee202ac	0.44142663
2	0xbd4a99b3	-0.049462985
3	0x3e9d9253	0.307757
4	0xbf15df5f	-0.5854396
5	0x3e99f7df	0.30071923
6	0x3f435944	0.76308084
7	0x3f333a9f	0.70011324
8	0x3e0c2e18	0.13689458
9	0xbdf15447	-0.11783653
10	0x3e5ac642	0.21364692
11	0x3e46ee9f	0.19426964
12	0x3f40cfff	0.75317377
13	0x3e5074c0	0.20357037
14	0x3e92c1ae	0.2866339
15	0xbe1b16bd	-0.15145393
16	0xbf4b3364	-0.7937529
17	0x3f6b17b9	0.9183307
18	0xbdc75dc8	-0.09734684
19	0x3f5b5fd4	0.856931
20	0xbe111caf	-0.14171098
21	0xbeac730a	-0.33681518
22	0xbd9723a8	-0.07379848
23	0x3e7b38e0	0.24533415
24	0xbefa6b44	-0.48909962
25	0xbf44dd67	-0.76900333
26	0xbed00ed1	-0.40636304
27	0xbed9ba70	-0.42525053
28	0xbe748196	-0.23877558
29	0x3ec7a2b2	0.38991314
30	0xbf7c30e5	-0.9851211
31	0xbee28e27	-0.4424908
32	0x3e33b72a	0.1755034
33	0xbf23fbde	-0.64056194
34	0xbe90db63	-0.2829238
35	0xbf19870a	-0.5997168
36	0x3f0bd9bf	0.5462913
37	0x3e8547ce	0.26031345
38	0xbdcd11fd	-0.100131966
39	0xbe3f71aa	-0.18695703
40	0x3ef747e7	0.48297045
41	0x3e9decdb	0.3084477
42	0xbe9fe538	-0.31229568
43	0x3f7d3f18	0.989244
44	0xbeabd40d	-0.3356022
45	0xbf873033	-1.0561584
46	0x3ee3fe8e	0.44530147
47	0xbe7fcfc3	-0.24981599
48	0xbe870f6f	-0.26378962
49	0xbf7317c9	-0.9495817
50	0xbe097833	-0.13424759
51	0x3ed87fb8	0.42284942
52	0x3f6db244	0.92850137
53	0x3e0398a7	0.12851201
54	0xbe0c825d	-0.13721605
55	0x3e91b43d	0.28457823
56	0xbdfb5279	-0.1227159
57	0xbd6f6071	-0.058441583
58	0x3df33318	0.1187498
59	0xbdefd722	-0.11710955
60	0xbe2d957f	-0.1695156
61	0xbf31d592	-0.6946651
62	0xbeb31bc8	-0.34982133
63	0x3c02e385	0.007988815
64	0xbebc911d	-0.36829463
65	0x3c9afcec	0.01891943
66	0x3e49a746	0.19692716
67	0x3f6cf492	0.92560685
68	0xbc9cd4d1	-0.019144448
69	0x3e7b0364	0.24513012
70	0xbe35fb13	-0.17771558
71	0xbcdfd079	-0.027321087
72	0xbec2789c	-0.37982643
73	0x3e1e1433	0.15437393
74	0x3f803e79	1.0019065
75	0xbe7213f1	-0.2364042
76	0x3f449858	0.7679496
77	0xbdc08a71	-0.094014056
78	0xbef6f35a	-0.48232538
79	0xbf0b898e	-0.54506767
80	0xbe8b7d2d	-0.2724394
81	0xbe8486e5	-0.25884166
82	0xbe85a9e6	-0.26106185
83	0xbe89b113	-0.2689291
84	0xbf8c3def	-1.0956401
85	0x3c131df0	0.008979306
86	0xbf04574f	-0.5169572
87	0xbe87521c	-0.26429832
88	0x3e9cf33e	0.3065433
89	0xbf1de71e	-0.6168078
90	0x3dbe67ce	0.09297143
91	0xbf06a933	-0.5260193
92	0x3f278a79	0.6544567
93	0x3e24a7a5	0.16079576
94	0xbd98c2c8	-0.074590266
95	0x3e52cd9e	0.20586249
96	0x3e739cde	0.23790309
97	0xbd0ff648	-0.03514698
98	0xbf3aa4ed	-0.72907907
99	0xbcd2e825	-0.02574546
100	0xbf19f92c	-0.6014583
101	0x3e4688b0	0.1938808
102	0x3d244c57	0.040111866
103	0xbe8ad743	-0.27117357
104	0x3edbba80	0.42915726
105	0xbe8b159b	-0.2716492
106	0xbe9b60f1	-0.30347398
107	0x3e07d6a5	0.13265474
108	0x3ee7d474	0.45279276
109	0x3e89eeea	0.2694009
110	0x3d663a5a	0.056207992
111	0x3eb32b0e	0.34993786
112	0xbe00a1c8	-0.12561715
113	0x3e9ab9c6	0.3021986
114	0x3e352d71	0.17693116
115	0x3f097fcb	0.5371062
116	0x3e8e4605	0.27787796
117	0xbe7d36a6	-0.24727878
118	0x3f12b581	0.57308203
119	0x3f19718e	0.59938896
120	0x3de3b850	0.11119139
121	0xbe8d5ba6	-0.27608985
122	0xbe3630df	-0.1779208
123	0x3e9f42f4	0.3110577
124	0xbe714468	-0.23561251
125	0x3f23331f	0.6374988
126	0xbf5dedc9	-0.86690956
127	0xbe48643d	-0.19569488
128	0x3ed602cc	0.4179901
129	0x3f16e04a	0.5893599
130	0x3e3e0cba	0.18559542
131	0x3be04fd4	0.0068454538
132	0xbebed4ba	-0.37271672
133	0x3eb0bc64	0.3451873
134	0x3efbb7f8	0.49163795
135	0xbe891ab5	-0.26778188
136	0xbe8d6c8d	-0.2762188
137	0xbe6ab2c9	-0.22919764
138	0xbebf3a51	-0.3734918
139	0xbf459774	-0.77184224
140	0x3ea81176	0.32825822
141	0xbe48a810	-0.19595361
142	0x3d74ef3c	0.059798464
143	0xbee11012	-0.43957573
144	0x3d623327	0.055224564
145	0x3f075666	0.5286621
146	0xbf1cbd21	-0.6122609
147	0x3f62e115	0.886247
148	0xbebfd495	-0.37466875
149	0xbe5d936d	-0.2163827
150	0x3df72fc8	0.120696604
151	0xbef6dce6	-0.48215407
152	0xbd4203cd	-0.047366906
153	0xbf03eb32	-0.51530755
154	0xbeabb621	-0.3353739
155	0xbe8d5f47	-0.27611753
156	0xbeeb29fa	-0.45930463
157	0xbe457b81	-0.19285394
158	0xbecf001e	-0.40429777
159	0xbedc0c9f	-0.4297838
160	0x3f17aede	0.592512
161	0x3d27a3b3	0.0409276
162	0x3e560d67	0.2090355
163	0x3e2862ad	0.16443892
164	0xbf50e34b	-0.8159682
165	0xbe7a10a8	-0.24420416
166	0x3f987399	1.1910278
167	0xbf13484f	-0.5753221
168	0xbf0c54c7	-0.5481686
169	0xbe2b419d	-0.16724248
170	0xbe331a9b	-0.17490618
171	0xbf1d3989	-0.61415917
172	0xbec6dfc9	-0.3884261
173	0xbe4600f1	-0.19336297
174	0xbe966878	-0.29376578
175	0xbf2e3912	-0.6805583
176	0xbe27274b	-0.16323583
177	0x3dcb5e55	0.09930102
178	0xbf0c69a3	-0.5484869
179	0xbec9821a	-0.39357072
180	0x3ed83ac4	0.42232335
181	0xbc217d01	-0.009856463
182	0x3eb49107	0.35266897
183	0xbfc1ad40	-1.5130997
184	0xbec0d73e	-0.37664217
185	0xbdac4abc	-0.08412692
186	0x3f0ec098	0.55762625
187	0x3d7ee673	0.062231492
188	0xbe9b34ae	-0.3031363
189	0xb9a2f46c	-0.00031081156
190	0x3c76c059	0.015060508
191	0x3e757173	0.23969059
192	0x3d18b142	0.03727842
193	0x3edf081a	0.43560869
194	0xbeeb4b05	-0.45955673
195	0x3e2e6fb7	0.17034803
196	0xbe559d66	-0.20860824
197	0x3eba3c4c	0.36374128
198	0x3d3d32e5	0.046191115
199	0x3f086a4f	0.53287214
200	0x3ee6d699	0.450856
201	0x3bc308bc	0.005951969
202	0x3e7c244b	0.2462322
203	0x3f50d948	0.81581545
204	0xbebcff7a	-0.36913663
205	0xbebe3d1a	-0.37155992
206	0x3ec384ac	0.38187158
207	0xbc9ca0e9	-0.019119697
208	0xbf328d91	-0.69747263
209	0x3ea362a5	0.31911197
210	0x3efc04b2	0.49222332
211	0xbe574fa1	-0.2102647
212	0x3e8d4863	0.2759429
213	0xbf18c1eb	-0.59670895
214	0x3e8a9f4d	0.27074662
215	0xbee11b1b	-0.43965992
216	0x3e999a78	0.30000663
217	0xbebc2221	-0.36744788
218	0x3ca88110	0.020569354
219	0x3db4b920	0.08824372
220	0xbf3d3330	-0.7390623
221	0x3f00e436	0.5034822
222	0xbef8b28c	-0.4857372
223	0xbc868c8d	-0.016424442
224	0x3f8b63a8	1.0889788
225	0xbf39b4b3	-0.7254135
226	0x3e74c0bd	0.23901649
227	0xba5f98df	-0.00085295545
228	0x3ead61b5	0.33863607
229	0x3ef81b57	0.4845836
230	0x3ecfe5b7	0.40604946
231	0x3f61c599	0.88192135
232	0x3e6374e1	0.22212555
233	0xbe87232a	-0.26394016
234	0x3ebaad1c	0.36460197
235	0x3f051236	0.5198091
236	0xbeacd60c	-0.33757055
237	0xbf0599bf	-0.5218772
238	0xbeeb3f67	-0.4594681
239	0x3d1ed85a	0.038780548
240	0xbede559b	-0.43424687
241	0xbe003b6f	-0.12522672
242	0x3e104739	0.1408967
243	0xbf9fa15b	-1.2471117
244	0x3e7bf5c1	0.24605466
245	0xbefa8abc	-0.4893397
246	0x3dd3ca86	0.10341363
247	0xbe539b00	-0.20664597
248	0x3f2bd3a9	0.6711984
249	0x3f3f8df1	0.7482596
250	0x3fa1d906	1.2644355
251	0x3c91cf9a	0.017799187
252	0xbf4be723	-0.7964956
253	0x3f9ef4de	1.2418478
254	0x3ed5b1d6	0.4173724
255	0xbe6a011c	-0.22851986

convs.1.fc_nj.weight f4 [12, 32]
0	0x3f07776a	0.52916586
1	0xbf21967c	-0.63120246
2	0xbf65e1e7	-0.89797825
3	0x3e727bae	0.23679993
4	0x3d7f841a	0.06238184
5	0xbee85beb	-0.45382628
6	0xbe990c51	-0.2989221
7	0x3f0793c8	0.5295987
8	0x3ea5b5b0	0.3236518
9	0xbd4d4e96	-0.050123774
10	0x3e2cb18a	0.16864601
11	0x3f2de41f	0.6792621
12	0x3f4fc549	0.8116041
13	0xbe44106e	-0.19146892
14	0x3e0a5829	0.13510193
15	0x3f9ad112	1.2095053
16	0xbdbd3f18	-0.0924055
17	0x3ec5edb5	0.3865792
18	0xbf2bd59b	-0.6712281
19	0x3e6ef0db	0.23334067
20	0x3e580874	0.21096975
21	0xbe1cae74	-0.15300924
22	0xbc402421	-0.011727364
23	0xbe50e160	-0.20398474
24	0xbdf39e9c	-0.11895487
25	0x3e9ddbdc	0.30831802
26	0xbeab2da9	-0.33433273
27	0x3eebcb18	0.46053386
28	0xbdeb436e	-0.114874706
29	0x3dca66d5	0.09882895
30	0xbf6a3ec8	-0.91502047
31	0x3e01ff3b	0.12695019
32	0xbe2793ae	-0.16364929
33	0xbe07c42b	-0.13258426
34	0x3f10e87d	0.5660475
35	0x3e1be30b	0.15223329
36	0xbebc6c68	-0.36801457
37	0xbf11bf2a	-0.5693232
38	0x3f4dc53f	0.803791
39	0xbeaab0dd	-0.3333806
40	0xbf8e7556	-1.1129558
41	0xbdd2908c	-0.102814764
42	0xbe93c302	-0.28859717
43	0xbeda1207	-0.4259188
44	0xbc95339e	-0.01821309
45	0x3ec2a925	0.38019672
46	0xbf88f896	-1.0700862
47	0x3f1d5d2d	0.614703
48	0x3ce68947	0.02814163
49	0x3ddeede1	0.108852156
50	0xbed52cb9	-0.41635683
51	0xbf9b492e	-1.2131708
52	0x3e83cee3	0.2574378
53	0xbe69bfdf	-0.228271
54	0x38014ab9	3.0825588e-05
55	0xbea45e18	-0.32103038
56	0x3e97d122	0.29651743
57	0x3fc93041	1.5717851
58	0x3f577d4b	0.84175557
59	0xbec000dd	-0.3750066
60	0xbea7fefa	-0.3281172
61	0x3eecfdb2	0.46287304
62	0x3f14a59b	0.58065194
63	0x3f40c05b	0.7529351
64	0xbf5f7400	-0.87286377
65	0xbe86947c	-0.2628516
66	0x3f475df2	0.77877724
67	0x3eb24a80	0.34822464
68	0x3f047fcc	0.517575
69	0xbe32bf55	-0.174558
70	0x3e9f45ca	0.31107932
71	0x3f3c4fd0	0.73559284
72	0x3f1c001e	0.6093768
73	0x3e123dd3	0.14281397
74	0x3f8b6f15	1.0893275
75	0x3e633a18	0.2219013
76	0x3ef74239	0.4829271
77	0xbf150bc3	-0.5822107
78	0xbdfeecb6	-0.12447493
79	0xbe55ad18	-0.20866811
80	0xbf50d69a	-0.81577456
81	0xbe1d5093	-0.15362768
82	0x3eb46904	0.3523637
83	0xbe173eb8	-0.14770019
84	0x3dda70b4	0.10666028
85	0xbe08776c	-0.13326806
86	0xbeb27297	-0.3485305
87	0xbf352897	-0.7076506
88	0x3ea7b8b1	0.32758096
89	0xbee9410e	-0.45557445
90	0xbefa323c	-0.4886645
91	0x3f0a1752	0.53941834
92	0x3ee5c6d5	0.4487826
93	0xbeb1359d	-0.34611216
94	0xbe19c988	-0.15018284
95	0xbdaddeed	-0.08489785
96	0x3ef1e08b	0.47241625
97	0xbbe00f51	-0.0068377634
98	0x3ef03cbe	0.46921343
99	0xbe755215	-0.23957093
100	0x3e2ce059	0.16882457
101	0xbf3c4bf6	-0.7355341
102	0x3e6fd690	0.23421693
103	0x3e28fe4c	0.16503257
104	0x3dd63945	0.10460142
105	0xbda5f966	-0.081042096
106	0x3f00d598	0.5032592
107	0xbcc09176	-0.023506861
108	0xbd1ac4c3	-0.037785303
109	0x3c861288	0.016366258
110	0xbe8fa7a7	-0.28057596
111	0xbea5b2a0	-0.32362843
112	0xbeffe1ad	-0.49976864
113	0x3d80381e	0.062607035
114	0x3eb74a8d	0.35799065
115	0xbe1193f8	-0.14216602
116	0x3eef1f65	0.4670364
117	0x3f03bb94	0.51458097
118	0xbf0b85aa	-0.5450083
119	0x3e27b272	0.16376665
120	0xbd972d2e	-0.07381664
121	0xbe6c565c	-0.23079818
122	0x3ec69b64	0.3879043
123	0xbe7c0167	-0.2460991
124	0xbe2ae30f	-0.16688178
125	0x3cff0275	0.031129101
126	0x3dc9412c	0.09826884
127	0xbe38163e	-0.17977235
128	0xbdd4ff68	-0.104002774
129	0xbf598bc3	-0.84978884
130	0x3ca43737	0.02004586
131	0x3dfe42e4	0.12415102
132	0x3ea19f3d	0.31566802
133	0xbf49d2cd	-0.7883728
134	0xbdf9ff99	-0.122069545
135	0xbf1e3006	-0.6179203
136	0x3f642e35	0.89133006
137	0xbe3ce127	-0.18445264
138	0x3eee7f7b	0.46581635
139	0xbf1c4be0	-0.61053276
140	0x3f42def9	0.7612148
141	0x3f28b793	0.6590511
142	0xbf22d8db	-0.63612145
143	0x3ed11286	0.40834445
144	0xbe97648c	-0.295689
145	0xbe919d66	-0.28440398
146	0xbf13d192	-0.57741654
147	0x3ed0f9d2	0.40815598
148	0xbe95dc14	-0.2926947
149	0xbc4984ba	-0.012299711
150	0xbe1bf701	-0.15230943
151	0x3e7f6fab	0.24944942
152	0xba94d305	-0.0011354393
153	0x3efbce1b	0.49180683
154	0x3debd9de	0.11516164
155	0x3e6a0112	0.22851971
156	0x3d7c630e	0.061617903
157	0xbdb013c6	-0.085975215
158	0x3e85690b	0.26056704
159	0x3f0f2b68	0.5592561
160	0xbec418a3	-0.38300046
161	0xbe2fef4f	-0.17181133
162	0x3e8983ca	0.2685836
163	0xbeb2b791	-0.34905675
164	0xbef5fee9	-0.48046044
165	0x3eeb8546	0.46000117
166	0xbf335c5a	-0.7006279
167	0x3b8ad553	0.004236856
168	0xbe85464d	-0.26030198
169	0xbf071580	-0.5276718
170	0x3d3c3bca	0.045955457
171	0xbf0e8084	-0.5566485
172	0xbec20c10	-0.37899828
173	0x3ef6556b	0.48112044
174	0xbecbf11f	-0.39832398
175	0xbe9dcd51	-0.30820706
176	0x3ea7e80b	0.32794222
177	0xbcc7514a	-0.024330754
178	0x3e4e6edd	0.20159478
179	0xbef5c927	-0.4800503
180	0x3e6676f2	0.22506312
181	0x3ecd820a	0.40138274
182	0xbee78bc0	-0.45223808
183	0x3f07680d	0.52893144
184	0xbe57f4d4	-0.21089488
185	0x3eba8027	0.36425897
186	0x3f4ff443	0.8123209
187	0xbe06e96f	-0.13174985
188	0x3ef9c971	0.487865
189	0x3e8fe22e	0.2810225
190	0x3eeef84f	0.4667382
191	0xbe8a4cd5	-0.27011743
192	0x3e9032cd	0.28163758
193	0xbf414817	-0.75500625
194	0x3ef2c904	0.47418988
195	0x3d7fc55e	0.062444083
196	0xbe8d141d	-0.27554408
197	0xbe7e06c8	-0.24807274
198	0x3f847757	1.034892
199	0x3d0362dc	0.0320767
200	0xbe91cdd8	-0.2847736
201	0x3ef4feed	0.47850743
202	0x3f2939cd	0.6610382
203	0xbf3ee485	-0.74567443
204	0x3faf441d	1.3692662
205	0xbde79ce9	-0.11309225
206	0x3c398701	0.011323691
207	0x3dc0a983	0.09407332
208	0xbf56b5b4	-0.83871007
209	0x3f452efa	0.77024806
210	0xbf17c915	-0.592912
211	0x3f4d808c	0.8027427
212	0xbee209ac	-0.44148004
213	0xbe663a4a	-0.22483173
214	0x3e9b3150	0.3031106
215	0x3eb8daea	0.36104518
216	0x3ef76522	0.48319346
217	0xbf506dbc	-0.8141744
218	0xbfc12c2d	-1.5091606
219	0xbea9e1ec	-0.33180177
220	0xbc845c04	-0.016157158
221	0x3e171602	0.14754489
222	0xbf434eb4	-0.76291966
223	0x3dd8f05d	0.10592721
224	0x3e390c4f	0.18071102
225	0xbe5c3c6a	-0.21507421
226	0xbe75e525	-0.24013193
227	0x3f9a336e	1.2046945
228	0xbf0be1d4	-0.5464146
229	0x3f3cb1de	0.73708904
230	0x3e0acb80	0.13554192
231	0x3e84c3b4	0.2593056
232	0xbe7124fa	-0.23549262
233	0xbeda5587	-0.42643377
234	0x3e679452	0.22615173
235	0x3f119846	0.56872976
236	0x3ea411d1	0.32044843
237	0xbf29bc07	-0.6630253
238	0x3e8546fd	0.26030722
239	0x3ddcc1eb	0.107791744
240	0x3ecf5ffa	0.40502912
241	0x3f5137c7	0.81725734
242	0xbdaa45de	-0.08314107
243	0x3d17d268	0.037065893
244	0x3e99fe16	0.30076665
245	0xbf745a63	-0.9545042
246	0xbe63c73e	-0.22243974
247	0xbd5c3051	-0.053757016
248	0xbf95fc88	-1.1717691
249	0xbed700ae	-0.41992706
250	0x3e39a274	0.18128377
251	0x3ed53dc7	0.41648695
252	0xbef75f13	-0.48314723
253	0x3e9bc8d8	0.3042667
254	0xbf60932a	-0.87724555
255	0xbd84403f	-0.064575665

convs.1.fc_fij.weight f4 [12, 3]
0	0x3e90d2f6	0.2828595
1	0xbef3803b	-0.4755877
2	0x3e90035d	0.28127566
3	0xbf985fd2	-1.1904242
4	0xbea13853	-0.31488284
5	0x3e466f5c	0.19378418
6	0x3e9ada57	0.30244705
7	0x3b951b53	0.0045503764
8	0x3eba1338	0.36342788
9	0xbf957c22	-1.1678507
10	0x3e3cfa40	0.18454838
11	0x3fa26868	1.2688112
12	0x3f0e1fad	0.55517083
13	0xbfd076a4	-1.6286206
14	0xbee6415e	-0.44971746
15	0xbe284d8f	-0.16435836
16	0xbe913ab1	-0.2836509
17	0x3f55d9ad	0.8353527
18	0xbfeada1e	-1.8347814
19	0x3ef6cf45	0.4820501
20	0xbe725672	-0.23665789
21	0xbf8d815b	-1.1055101
22	0xbf8a8d91	-1.0824453
23	0x3f15249b	0.5825898
24	0xbee045de	-0.43803304
25	0x3f67c1f7	0.9053034
26	0x3ef32bc7	0.47494337
27	0xbf705927	-0.93886036
28	0xbef5463c	-0.47905147
29	0x3ede1ff8	0.43383765
30	0xbf1a6134	-0.6030457
31	0xbf5d7232	-0.86502373
32	0x3e5c9205	0.21540077
33	0xbf30adce	-0.69015205
34	0xbf00dab1	-0.50333697
35	0x3df1cd09	0.118066855

convs.2.attn f4 [1, 4, 3]
0	0xbf2ff64c	-0.68735194
1	0x3f2a7844	0.6658976
2	0x3ef2f14b	0.47449717
3	0x3f1096be	0.56480014
4	0xbf26b5b9	-0.65121037
5	0xbee64da1	-0.449811
6	0x3eb7c533	0.3589264
7	0x3f3d0b66	0.7384552
8	0x3f8fac9e	1.1224554
9	0xbf85184b	-1.0398039
10	0x3f021640	0.508152
11	0x3fd18ae5	1.6370512

convs.2.bias f4 [12]
0	0xbc809ecd	-0.015700722
1	0x3e8f853a	0.2803133
2	0xbec58c16	-0.3858344
3	0x3e1fcc0c	0.15605181
4	0xbf02b6c9	-0.5106016
5	0xbea21610	-0.31657457
6	0x3f1d7d49	0.61519295
7	0xbecbfb96	-0.39840382
8	0x3e0b5979	0.1360835
9	0xbe3cc744	-0.18435389
10	0x3f4a53ed	0.7903431
11	0x3f3528cb	0.7076537

convs.2.fc_node_src.weight f4 [128, 32]
0	0x3ec61df6	0.38694733
1	0xbe83998c	-0.25703084
2	0xbe4f0277	-0.20215784
3	0xbf059375	-0.52178127
4	0xbe8eae11	-0.27867177
5	0xbe5d8a41	-0.21634771
6	0xbd845fd1	-0.06463588
7	0x3e866d38	0.26255202
8	0xbddbdc13	-0.10735335
9	0x3e2a1695	0.16610177
10	0x3ed5598e	0.41669887
11	0x3e6abb35	0.22922976
12	0x3c3858e8	0.011251666
13	0x3d430efc	0.047621712
14	0xbdc93c51	-0.098259576
15	0x3db23bad	0.087027885
16	0x3eb9a810	0.36261034
17	0x3ec259f1	0.37959245
18	0x3e6b4e43	0.22979073
19	0x3c9b96f7	0.018992884
20	0x3e803bf8	0.25045753
21	0x3e2872a8	0.16449988
22	0x3e53058d	0.20607586
23	0xbee7fc38	-0.45309615
24	0xbea95b91	-0.33077672
25	0x3dee81b2	0.11645831
26	0xbe72d561	-0.2371421
27	0xbe90b636	-0.28264016
28	0x3d42e0b8	0.04757759
29	0x3ebe0507	0.3711321
30	0x3cebf3ed	0.028802836
31	0x3ef84d6c	0.48496568
32	0x3d51b07d	0.051193703
33	0xbcdad5d7	-0.026713295
34	0xbe848dff	-0.25889584
35	0x3ed8c329	0.42336395
36	0x3ecc9dce	0.39964145
37	0x3dc31cdb	0.09526988
38	0xbdaada53	-0.08342423
39	0x3e8c4f9e	0.27404493
40	0xbec6e8e4	-0.38849556
41	0x3d67a7b2	0.05655641
42	0xbc02ce74	-0.007983793
43	0x3e3ed80c	0.18637103
44	0xbeaf8b67	-0.34286043
45	0xbe663c14	-0.22483855
46	0xbea425e8	-0.3206017
47	0x3e077834	0.13229448
48	0xbeb1e18b	-0.34742388
49	0x3e8ea8be	0.27863115
50	0x3dd845d8	0.10560197
51	0xbb9df5c4	-0.0048205573
52	0xbd510f45	-0.051039953
53	0x3e25439d	0.16139074
54	0x3e52e8e4	0.20596653
55	0x3d75ded2	0.06002695
56	0xbde276b4	-0.11057797
57	0x3e81f7ce	0.25384372
58	0x3d30eab3	0.043192577
59	0x3e67a702	0.22622302
60	0xbd6ebb66	-0.058284186
61	0x3d8c7779	0.06858725
62	0xbd864a7d	-0.06557176
63	0xbe2ba433	-0.16761856
64	0x3d5800c4	0.052735105
65	0x3e319f95	0.17346032
66	0xb99e2d4a	-0.0003016985
67	0xbd872867	-0.06599503
68	0x3e25ada4	0.1617952
69	0x3e96ad7d	0.29429236
70	0xbe237d66	-0.15965804
71	0xbeac703f	-0.33679387
72	0x3e2bc200	0.16773224
73	0x3ea65adb	0.32491192
74	0x3ea908c1	0.3301449
75	0xbacaf951	-0.0015485679
76	0x3e5ef9a7	0.21774922
77	0xbe85b5b4	-0.2611519
78	0x3df2edd4	0.11861768
79	0xbec83d2f	-0.3910918
80	0x3e210c44	0.15727335
81	0xbe86a9ee	-0.2630152
82	0xbe97b245	-0.29628196
83	0x3ecc60bf	0.3991756
84	0xbf158347	-0.5840344
85	0xbdacbefc	-0.08434865
86	0xbeade18f	-0.3396115
87	0x3c6760bd	0.014122185
88	0xbd8a0620	-0.067394495
89	0xbef460b6	-0.47730035
90	0x3d588524	0.052861348
91	0x3edd82ff	0.43264005
92	0xbf10e31d	-0.5659655
93	0xbe1caea7	-0.15301
94	0x3ea7396b	0.32660994
95	0x3da7fe0f	0.08202755
96	0xbba461e3	-0.005016552
97	0x3d4f03bf	0.050540682
98	0xbeb2678f	-0.34844634
99	0x3e677711	0.22604014
100	0x3e80c7a2	0.25152308
101	0x3f1a1128	0.6018243
102	0x3d9274c7	0.0715118
103	0x3f1e53d8	0.61846685
104	0xbd346aa0	-0.044046998
105	0x3e1e6051	0.1546643
106	0xbe3be008	-0.1834718
107	0x3db0a979	0.08626074
108	0xbd08a21e	-0.033357732
109	0xbd8b29aa	-0.06795056
110	0x3cba4219	0.022736596
111	0xbe245766	-0.16048965
112	0xbe2b098e	-0.16702864
113	0xbe9123b4	-0.28347552
114	0xbe87a7e1	-0.2649527
115	0xbda56981	-0.08076764
116	0xbe684b92	-0.22685078
117	0xbeaca707	-0.33721182
118	0x3e4a537f	0.19758414
119	0x3cebdd00	0.028791904
120	0x3d176cb4	0.0369689
121	0xbef8d2dd	-0.48598376
122	0xbdc496eb	-0.09599098
123	0xbddf9940	-0.10917902
124	0xbe958255	-0.29200998
125	0x3e6e7c47	0.23289596
126	0x3df12642	0.11774875
127	0xbd6bf71a	-0.0576087
128	0xbd8f9f80	-0.07012844
129	0xbd105196	-0.035234056
130	0xbebe673e	-0.37188143
131	0xbdb30a62	-0.08742215
132	0xbdfbcd28	-0.1229499
133	0xbe4ca7c1	-0.19985868
134	0x3e6668c0	0.22500896
135	0xbe4e8e68	-0.20171511
136	0x3f068aca	0.52555525
137	0xbee333ba	-0.44375402
138	0xbe21bc1d	-0.15794416
139	0x39ab1f26	0.0003263887
140	0xbe63808e	-0.22217008
141	0x3d1ecbb3	0.03876848
142	0x3dbf781c	0.09349081
143	0xbe09df96	-0.13464198
144	0xbdf16430	-0.117866874
145	0x3ee680cc	0.4502014
146	0xbe82de2f	-0.25560138
147	0xbe5cace8	-0.21550333
148	0xbe383c6d	-0.179918
149	0x3db7d681	0.0897646
150	0xbdbaaa3d	-0.091145016
151	0x3b7f3da4	0.0038946653
152	0xbd2e9cf3	-0.042630147
153	0xbef43129	-0.47693756
154	0x3deade61	0.11468197
155	0x3cde096d	0.027104104
156	0x3f138875	0.5763009
157	0xbf0ca29f	-0.5493564
158	0xbdebdedd	-0.11517117
159	0xbdd2f063	-0.102997564
160	0x3d055f90	0.03256184
161	0x3e8dae87	0.27672216
162	0x3e2eb81f	0.17062424
163	0x3e7070ca	0.23480526
164	0xbe0a5bb1	-0.1351154
165	0x3ea0e19c	0.31422126
166	0xbdb2275b	-0.08698913
167	0xbe9d42b7	-0.30714962
168	0xbde89c4d	-0.11357937
169	0x3e474384	0.19459349
170	0xbd6ca4c2	-0.057774313
171	0x3e1f1635	0.15535815
172	0xbe2a3089	-0.16620077
173	0xbe5dfbf2	-0.21678141
174	0x3dad1425	0.08451108
175	0x3d3d040d	0.04614644
176	0xbb809e40	-0.003925115
177	0xbec86799	-0.3914154
178	0xbea87d16	-0.32907933
179	0x3d8ea339	0.06964726
180	0xbe6f9305	-0.23395927
181	0xbe04ef4a	-0.12981907
182	0x3e5bea66	0.21476135
183	0x3e13d744	0.14437586
184	0x3ea26ddc	0.3172444
185	0xbe3708e7	-0.1787449
186	0xbb9e1a15	-0.0048248866
187	0x3cef2eb8	0.029197082
188	0xbe4e26d3	-0.20131998
189	0x3dea80d5	0.11450354
190	0xbec6e9fa	-0.38850385
191	0xbdb793a3	-0.08963706
192	0x3c1917e8	0.009344079
193	0x3e944d2c	0.28965127
194	0xbec46569	-0.3835862
195	0xbe291a8c	-0.16514033
196	0xbdd1bb04	-0.102407485
197	0x3ea7fb5e	0.32808965
198	0x3e91f995	0.28510728
199	0x3e7136df	0.23556088
200	0x3e0d047b	0.1377124
201	0x3df0c340	0.11755991
202	0x3ee767d3	0.451964
203	0xbead6c34	-0.33871615
204	0xbdd5e7d8	-0.10444611
205	0xbe66d09b	-0.22540514
206	0xbe591ac5	-0.21201618
207	0xbed8e7f6	-0.42364472
208	0xbe47a2a3	-0.19495635
209	0xbe4c90b5	-0.19977076
210	0x3e84312c	0.25818765
211	0x3dc87e60	0.09789729
212	0x3ecb636e	0.39724296
213	0x3d76f975	0.060296495
214	0xbca67475	-0.020319203
215	0x3deed9e4	0.11662653
216	0xbeb7b324	-0.3587886
217	0xbeceecb5	-0.40414968
218	0xbde1d3b8	-0.1102671
219	0x3e0292ca	0.12751308
220	0xbe213e2b	-0.15746371
221	0xbe80be56	-0.25145215
222	0x3e5e7629	0.21724762
223	0x3df3130c	0.11868867
224	0xbb34cf92	-0.0027589542
225	0xbeae25a8	-0.34013104
226	0x3e51ce61	0.20488884
227	0x3eac09ba	0.3360117
228	0x3e2ac0ac	0.16675061
229	0x3d2c9ee3	0.042143714
230	0x3e688754	0.22707874
231	0xbcc1007c	-0.023559801
232	0xbe691f02	-0.22765735
233	0xbdb46842	-0.08808948
234	0x3e23fb77	0.16013895
235	0xbc0ff570	-0.008786544
236	0xbd5b4077	-0.053528275
237	0xbe141718	-0.14461935
238	0xbe0f932e	-0.14020988
239	0xbd3e7ed1	-0.04650766
240	0x3f0296c3	0.51011294
241	0xbd75fe96	-0.060057245
242	0x3ec10d7f	0.3770561
243	0x3d82e5e4	0.063915044
244	0x3d67c521	0.05658448
245	0x3e99e938	0.30060744
246	0x3d7c4131	0.06158561
247	0xbe1d9eb9	-0.15392579
248	0x3e67760a	0.22603622
249	0xbe81375e	-0.25237554
250	0x3ea80aed	0.32820836
251	0x3ea9d249	0.33168247
252	0xbe825e59	-0.25462607
253	0x3db7731f	0.089575045
254	0x3e89d4ea	0.26920253
255	0xbe80a07b	-0.25122437

convs.2.fc_ni.weight f4 [12, 32]
0	0x3e38fa70	0.18064284
1	0x3f2e058f	0.6797723
2	0x3d1b190d	0.037865687
3	0x3db7194b	0.08940371
4	0x3ea7520b	0.3267978
5	0xbec2a658	-0.38017535
6	0xbe7225eb	-0.23647277
7	0xbed6c14a	-0.41944343
8	0x3f0764df	0.5288829
9	0x3ef1e383	0.4724389
10	0xbeec6146	-0.46167964
11	0x3d013846	0.031547807
12	0x3ec4ba56	0.38423413
13	0x3e08e8e8	0.13370097
14	0xbd525391	-0.051349226
15	0x3e33842a	0.17530885
16	0x3eac18e5	0.33612743
17	0xbf1671fc	-0.58767676
18	0xbeabc791	-0.33550695
19	0x3ee44fe8	0.44592214
20	0xbef44a57	-0.47712967
21	0xbe027013	-0.12738065
22	0xb9e8cba5	-0.00044402215
23	0xbd7cbaee	-0.061701708
24	0x3f01a68d	0.5064476
25	0xbeb125dc	-0.34599197
26	0x3e8b9516	0.2726218
27	0xbe0c7dda	-0.13719884
28	0xbedba177	-0.42896625
29	0x3ecdbcd9	0.40183142
30	0xbd9b32a0	-0.07578015
31	0xbd42ed36	-0.047589503
32	0xbe2ba55e	-0.16762301
33	0xbf22c05a	-0.63574755
34	0x3f15d92e	0.58534515
35	0xbf33a883	-0.70179003
36	0xbf34c3de	-0.7061137
37	0x3f16022c	0.58597064
38	0x3f1d3303	0.6140596
39	0xbd166fe0	-0.036727786
40	0xbf911a5f	-1.1336173
41	0xbdde4742	-0.10853435
42	0xbf288f9e	-0.6584414
43	0xbec72c2a	-0.38900882
44	0xbf0f2c71	-0.5592719
45	0x3e40e546	0.18837461
46	0x3e1b972e	0.15194389
47	0x3f6e319c	0.9304445
48	0xbdbde46b	-0.09272083
49	0xbe9ff8a6	-0.3124439
50	0xbe396352	-0.18104294
51	0xbea14cb9	-0.31503847
52	0xbdf0da1d	-0.11760352
53	0x3d9c8d27	0.0764411
54	0x3e939872	0.28827244
55	0x3e0afd63	0.13573222
56	0xbd9ccd45	-0.076563396
57	0xbdd52adc	-0.104085654
58	0xbe9d0abb	-0.3067225
59	0xbedcde0a	-0.43138152
60	0x3ee4ca51	0.44685605
61	0x3dfe8d1e	0.1242926
62	0x3ec7ffed	0.39062443
63	0xbf50477e	-0.8135909
64	0x3efb0d10	0.49033403
65	0x3ee41576	0.44547623
66	0xbecdaab5	-0.40169302
67	0x3f3d4785	0.73937255
68	0x3edc33d1	0.43008283
69	0x3f6d23d3	0.9263279
70	0x3d7487c8	0.059699804
71	0x3e6d6389	0.23182501
72	0xbf11d259	-0.5696159
73	0x3f75e1da	0.9604775
74	0xbe4dffc3	-0.20117097
75	0xbeba3b77	-0.36373493
76	0x3e012b4e	0.12614176
77	0xbf3342fe	-0.70024097
78	0x3d24b08e	0.04020744
79	0xbe485923	-0.19565253
80	0xbed7fbfd	-0.4218444
81	0xbef8d26c	-0.4859804
82	0xbe075eb6	-0.13219723
83	0x3d14a03d	0.036285628
84	0xbf573063	-0.8405821
85	0x3dfc8b30	0.123312354
86	0xbc96bba8	-0.018400028
87	0xbec30e02	-0.38096625
88	0x3d893a75	0.06700603
89	0xbe38c47d	-0.18043704
90	0x3f83cf8a	1.0297711
91	0xbefaba8c	-0.4897045
92	0xbc644047	-0.013931341
93	0xbe7f584c	-0.24936026
94	0xbdaf091e	-0.08546661
95	0x3d83afb4	0.06429997
96	0x3c8ce8d8	0.017200872
97	0x3f19a0f3	0.60011214
98	0xbe9cffec	-0.30664003
99	0xbe2217cd	-0.15829392
100	0x3f009ed3	0.50242347
101	0xbcf7fe15	-0.030272523
102	0xbd8716a2	-0.06596114
103	0x3f077b88	0.5292287
104	0xbe9c084d	-0.30475083
105	0x3f387bfe	0.720642
106	0x3f1abf71	0.60448366
107	0x3eda8252	0.42677552
108	0xbf27e956	-0.6559042
109	0x3d8a6a75	0.06758586
110	0x3d0134bd	0.031544436
111	0xbcfcff53	-0.030883467
112	0xbe276200	-0.16345978
113	0x3db3d359	0.08780546
114	0x3db6ff9f	0.089354746
115	0x3cc968f9	0.024586188
116	0x3f2eeaa2	0.6832677
117	0x3e4dad63	0.20085673
118	0xbead1e3c	-0.3381213
119	0x3e38be62	0.18041375
120	0xbf6f138f	-0.9338922
121	0x3e6792df	0.2261462
122	0x3e096a05	0.1341935
123	0x3e28c376	0.16480812
124	0x3e8c2cf6	0.27378052
125	0xbe050bab	-0.12992732
126	0xbf457225	-0.77127296
127	0x3f20558a	0.6263052
128	0x3eb71f8b	0.35766253
129	0x3db6f116	0.08932702
130	0xbe96e7ba	-0.29473668
131	0xbe8889e0	-0.2666769
132	0x3d68ee8b	0.056868117
133	0x3e720f58	0.23638666
134	0xbc982ca6	-0.018575978
135	0xbe1705bb	-0.1474828
136	0x3cb48008	0.022033706
137	0xbf4d7891	-0.80262095
138	0xbf73157b	-0.9495465
139	0x3f9624d7	1.1729993
140	0xbe7db3ab	-0.24775569
141	0xbdfdee0b	-0.12398919
142	0x3e656852	0.22403076
143	0x3d6b2807	0.05741122
144	0xbbb821ed	-0.0056192786
145	0x3f92503c	1.1430736
146	0xbd0d6570	-0.034520566
147	0x3eeffd5b	0.46872982
148	0x3d32bf8f	0.043639716
149	0x3d092f36	0.03349229
150	0xbf9bb3f1	-1.2164289
151	0xbe81dd81	-0.25364307
152	0xbd86cddd	-0.06582234
153	0xbe77df91	-0.24206378
154	0x3f49b5ce	0.78793037
155	0x3eb9c6c7	0.36284468
156	0x3ea31c8f	0.31857726
157	0x3d739036	0.059463702
158	0xbe61eff4	-0.22064191
159	0x3f0d0fe3	0.55102366
160	0xbec3cef3	-0.38243827
161	0xbf14f9c5	-0.5819362
162	0xbd6eed5c	-0.058331832
163	0xbe8d8246	-0.27638453
164	0x3e467984	0.19382292
165	0xbed7496e	-0.4204821
166	0xbdfad0d2	-0.122468606
167	0xbb000b16	-0.0019537858
168	0x3f42c12a	0.76075995
169	0x3e09f6be	0.13473031
170	0x3ec7ac53	0.3899866
171	0xbeefef4f	-0.46862265
172	0x3e1ccea9	0.1531321
173	0xbe944c2b	-0.28964362
174	0xbf268988	-0.65053606
175	0xbe520c64	-0.20512539
176	0x3ead8514	0.33890593
177	0x3f05558e	0.5208367
178	0x3e4338b3	0.19064598
179	0x3d6239d4	0.05523093
180	0xbc04ec26	-0.008112943
181	0x3f467d4b	0.7753493
182	0xbb214376	-0.002460686
183	0x3deefbbc	0.11669108
184	0x3e8f1ae2	0.27950197
185	0xbf149caf	-0.5805158
186	0x3f0c0861	0.54700285
187	0x3eb3e0c8	0.35132432
188	0x3f6cec49	0.9254804
189	0xbf54c68b	-0.8311545
190	0x3e8908f4	0.26764643
191	0xbe31d058	-0.17364633
192	0xbf0d4263	-0.55179423
193	0x3ef9df32	0.48803097
194	0xbec453a2	-0.38345057
195	0xbe16dd0c	-0.1473276
196	0xbc08bd96	-0.008345982
197	0xbf17017a	-0.5898663
198	0xbec2661d	-0.3796853
199	0xbdc50f2e	-0.09622036
200	0x3cf023bd	0.029313916
201	0x3f135d20	0.5756397
202	0x3eb370ff	0.35047147
203	0x3e4d0b51	0.20023848
204	0xbda84bfd	-0.082176186
205	0xbf08d3fb	-0.53448457
206	0xbdb76952	-0.08955635
207	0xbecdee16	-0.40220708
208	0xbe1eb12c	-0.15497273
209	0x3ecd1f28	0.40062833
210	0xbd0f51c2	-0.03499008
211	0x3ee9b4f7	0.45645878
212	0x3d5ce027	0.053924706
213	0xbf2a4341	-0.6650887
214	0x3c3d9fd5	0.011573751
215	0xbf38ed03	-0.7223665
216	0xbe9ba010	-0.30395555
217	0x3ca6fd0a	0.02038433
218	0xbe67bfe6	-0.22631797
219	0xbf743deb	-0.9540698
220	0x3e9e87aa	0.30962878
221	0xbeee33f0	-0.46524
222	0x3dba72f8	0.0910396
223	0xbe9720fa	-0.29517347
224	0x3eac3a76	0.33638352
225	0xbeaa923a	-0.33314687
226	0xbf3920e4	-0.7231581
227	0x3e9e53a6	0.30923194
228	0x3e4cbec3	0.19994645
229	0x3d93aa3b	0.07210203
230	0xbe6e89ae	-0.23294708
231	0xbf101185	-0.5627673
232	0x3da883f6	0.082282946
233	0xbe8a9631	-0.27067712
234	0x3d6d6225	0.057954926
235	0x3e5cde0f	0.21569084
236	0xbddede58	-0.108822525
237	0xbeaba368	-0.33523107
238	0x3e1be9bb	0.1522588
239	0xbd8f230e	-0.06989108
240	0x3e21aaa1	0.15787746
241	0x3e4ce592	0.20009449
242	0xbda925fa	-0.082591966
243	0xbd0dce0c	-0.03462033
244	0xbe46e760	-0.194242
245	0x3d73b168	0.05949536
246	0xbef3e59f	-0.47636124
247	0xbf3325e8	-0.69979715
248	0x3f28a695	0.65879184
249	0x3e63789c	0.22213978
250	0x3e73aaaf	0.2379558
251	0x3df93bba	0.12169595
252	0x3e93ae58	0.2884395
253	0x3dadb57a	0.084818795
254	0x3e664c7b	0.22490112
255	0x3e9983ea	0.29983455
