parameters/task1_flgcn_task1_0.9230.pt (torch, 23429 bytes, 3 tensors)

lin1.weight f4 [128, 40]
00000000: a507 46bf 8ce8 1ebd a583 dcbd 91ef 25be
00000010: a5c8 d2bc 0383 78bd 1dfd 67c1 fb31 08bf
00000020: 3f40 4d3d f4f2 bd3d 6e50 453d bb78 fcbf
00000030: 0f33 9d3e 8658 d5bc 05e0 a5bd abd5 273d
00000040: f6b0 b1bf 3438 98be bfeb e53d 109d e23d
00000050: 8615 a1bb 8840 61bf 5f66 41be 6dba 75be
00000060: 93d3 10be edaa 87c1 b06c 5dbe 737d 6bbe
00000070: f852 a43e 8c96 493e f1c2 4cc0 9ffe dc3d
00000080: bab8 2e3e c254 853e 23f4 fd3e a3e5 26c0
00000090: ad44 853c 004c 343e cea6 fb3d dcb8 48bf
000000a0: 6f8b 233f cd08 e4bd f69a fb3d e08d ed3d
000000b0: 8832 90bd e183 08be 62e7 1241 b686 173f
000000c0: d89c f73d 2eb3 193e 62f2 283c 15dd 263f
000000d0: 314a e03e f1a5 e43b 5fd0 22be f945 9cbd
000000e0: a41a 663e d016 303f 1b16 503d aa0a 30bc
000000f0: b4e1 5abd 79e9 cc3e ab55 db3d 584e 0dbf
00000100: ac3f 86bd 0d1e 4f41 e9a3 c2be e0e0 acbe
00000110: 9e2b 1b3e 29b2 563c 66af cc3f 2888 76bf
00000120: d80e a7bd 6dc3 2abe 9081 1abe b3c1 b33f
00000130: 9081 fdbe cef4 cabe 4a36 443e 36ae 913e
00000140: 5fa5 16be 5768 1bbe ecce 0c3e 0387 c13d
00000150: 1392 a7bd 3cf2 9ebd 86a2 14bd 1e4d 373d
00000160: a88e 45be 2a73 00be fb7c 89bd 413b c8bd
00000170: 6a8d 0bbd 56e2 9c3d 21af a1ba b0ad 20be
00000180: 0424 ec3d 831d cb3d 847f 323c f0d5 253d
00000190: 4a1a 723d cf8c ff3d c574 32be 7b9b e0bd
000001a0: 9a7d a4bc 77f2 6fbd dd38 dcbd 32f8 24be
000001b0: 8e07 1dbe a007 6ebd b897 d53d 89c6 e43d
000001c0: 05a0 eb3c f0dc 03be d77c d0bd 6cd2 8bbc
000001d0: 6c0a 10be 2c0f 61bc f702 1239 5d82 de3d
000001e0: aec3 a03e 00ed 1e3e b070 433c 4e69 17be
000001f0: afb6 c73d 38b9 7d3e b7ea a241 d3ae 853e
00000200: 4fbd b53e a1b5 b0bc 6ea4 e03e 5158 c73f
00000210: bf2d 85be 85b0 1fbe 93e9 04bc e8e3 46bb
00000220: 91f6 c73e ba6c 793e 206f bebd adec c0bd
00000230: cb1f fabd 3f39 0ac0 428d 9b3d 6c3f 2a3f
00000240: 0a12 0a3e 88cf d841 d905 e93d bb19 8c3d
00000250: 3a55 89be a837 753f ce2a 1c40 9a70 0fbf
00000260: 2335 6ebd db1c 55be 3b9c f3bc dff4 c13f
00000270: ca6b 7cbd cdbd f4bd 0364 8abe 3b49 643f
00000280: 34a3 763f 8536 ee3d 8f69 c43d b0bb acbd
00000290: 92a1 eabc 6243 8b3e 77c2 9641 af4a a53e
000002a0: 9825 863e ba40 313e 3556 f63e 589c 633f
000002b0: 1c7d adbe 6937 a4bc 7335 0dbe b5b4 9d3d
000002c0: d2e5 d2bd e97c ebbd cbb1 a7bd 7256 6b3d
000002d0: c428 993c efca 32be a535 763e 60f4 563d
000002e0: 5b9e aabd c65e cd41 7927 173e 6c81 d63c
000002f0: 6acb 42bd a914 b0be 3576 2c40 214e 05bf
00000300: 90cd 7dbb ef9a 95be 3916 06bf 06af 0d40
00000310: a625 95bc c938 04bf 1c3d 88b9 69d0 753d
00000320: fc53 2c3f aab2 ea3d 4f06 d73d 8ea9 613d
00000330: 5884 003c 33e7 5d3d 2219 4b41 5b39 273e
00000340: 6184 9f3e f9c2 5a3d 9ef8 4d3e 5bdb 0f3f
00000350: bfff d6be 03df 18be 9244 14be d572 68bc
00000360: 316b 633e 075d 7bbd c0a2 9bbe 97cd 18bb
00000370: 35bc d33d 45d7 23bf 8c85 8f3e dcf0 453e
00000380: bb22 eabd e357 8741 2ab1 683d b2ab 94bd
00000390: 63c9 8abd db93 d5be 8525 1640 f291 c6be
000003a0: 6499 77be e6d4 a7be 9489 16bf 2b71 0f40
000003b0: f3f8 83be 0d54 7fbe 8afc 3bbe cb7b 563d
000003c0: f9ef afbf b90a cebd 95f1 f23c 133d 25be
000003d0: 1867 eebd 4fad 72bd 3747 78c1 a4bc 22be
000003e0: 080d 0bbe 3634 a53d 3a1b a3bd 544b e3bf
000003f0: 5311 5a3f 255f 313e a382 833d 1f8f 673c
-0.77355415 -0.038795993 -0.10767297 -0.16204669 -0.02573044 -0.060671818 -14.499295 -0.53201264
0.050110098 0.09274855 0.048172407 -1.9724344 0.30703017 -0.026043188 -0.08099369 0.040975254
-1.3882129 -0.2973038 0.112266056 0.110651135 -0.004915896 -0.8798909 -0.18886708 -0.23996897
-0.14143209 -16.95846 -0.21623492 -0.22997074 0.3209455 0.19686335 -3.1993983 0.107907526
0.17062655 0.26041228 0.49600324 -2.607766 0.016268099 0.17607117 0.12287675 -0.78407073
0.63884634 -0.11134491 0.12285416 0.11599326 -0.07040888 -0.13331558 9.18149 0.5918993
0.120904624 0.15009758 0.010311695 0.65181094 0.43806604 0.0069777896 -0.158998 -0.07630534
0.224711 0.6878481 0.05080233 -0.01074473 -0.053437904 0.40021876 0.10709699 -0.5519767
-0.06555113 12.944837 -0.3801568 -0.33765316 0.15153357 0.013104 1.5991027 -0.9630151
-0.08157128 -0.16676112 -0.15088487 1.4043487 -0.4951291 -0.39639896 0.19161335 0.28453225
-0.14711522 -0.15176521 0.1375081 0.094495796 -0.08182158 -0.07761046 -0.036287807 0.04475128
-0.192927 -0.12543932 -0.06713291 -0.09776927 -0.03407041 0.07660358 -0.0012335518 -0.15691257
0.11530307 0.09917738 0.01089466 0.04048723 0.059107102 0.12478029 -0.17427357 -0.109671555
-0.020079423 -0.058580842 -0.10753033 -0.16110304 -0.15334913 -0.05811274 0.10429329 0.1117068
0.028762827 -0.1287725 -0.10180061 -0.01706811 -0.14066476 -0.013736527 0.0001392475 0.108647086
0.31399292 0.15520096 0.011928722 -0.14786264 0.09751641 0.24777687 20.364607 0.26109943
0.35495993 -0.021570982 0.4387545 1.5573827 -0.26011464 -0.1559468 -0.008112329 -0.0030348245
0.39055303 0.24357882 -0.09298539 -0.09420142 -0.12213095 -2.159744 0.07595302 0.66503024
0.13483444 27.101334 0.113780685 0.06840845 -0.26822835 0.9578805 2.4401126 -0.5603119
-0.058156144 -0.20811789 -0.029737582 1.5152854 -0.061626233 -0.11950264 -0.27029428 0.8917424
0.9634278 0.116314925 0.09590446 -0.08434236 -0.028641496 0.27199847 18.844954 0.32283542
0.26200557 0.17309847 0.48112646 0.88910437 -0.33884513 -0.020045953 -0.1378992 0.07700483
-0.10297741 -0.11498434 -0.08188208 0.057455488 0.018696196 -0.17460226 0.24043901 0.052479148
-0.08330985 25.671276 0.14761151 0.02618476 -0.047557272 -0.34390762 2.6947148 -0.5207234
-0.003872726 -0.29219767 -0.5237766 2.2138076 -0.018206429 -0.5164915 -0.0002598547 0.06001321
0.6731565 0.11459859 0.1049925 0.05509334 0.007844053 0.054175567 12.693636 0.16330473
0.31155685 0.053408597 0.20114371 0.56194085 -0.41991994 -0.14928822 -0.14479282 -0.014187534
0.22208859 -0.061368015 -0.30397606 -0.00233159 0.10338632 -0.6400035 0.28031576 0.19330162
-0.114324056 16.917913 0.05680958 -0.07259311 -0.06776693 -0.41714367 2.34604 -0.38783222
-0.24179608 -0.32779616 -0.5880368 2.2412822 -0.2577587 -0.24934407 -0.18358055 0.052364152
-1.3745109 -0.10060639 0.02965621 -0.16136579 -0.11640757 -0.05924731 -15.517386 -0.15892273
-0.1357919 0.08066599 -0.079641774 -1.7757363 0.85182685 0.17321451 0.06421401 0.014133244

lin1.bias f4 [128]
00000000: 4a8f d43e 5e9e 85bd 1fc6 01be 9818 08be
00000010: b6e7 54bd 9860 233d 37aa ca3e 9d16 73be
00000020: c9df 1cbe bceb 13be 8dab bf3e fac1 9a3e
00000030: 75e1 cd3e 7352 6d3e fd06 6e3e 1724 2bbd
00000040: b1f3 c1be 4ee5 86bd 9514 e53e 94fe 8bbd
00000050: 93e9 ab3b f002 ab3e dadd d73d a998 ca3e
00000060: a088 a63e 3ce1 843d 585f cebe e592 10be
00000070: b075 473e bd1e 553d 6108 24bd 45ba 693e
00000080: 6f50 9c3c c276 813e 0341 2d3e 4fc5 da3e
00000090: b896 3b3d 32d8 303e 157c 8b3e aedb e4bd
000000a0: 7962 58be cf00 84bc fde3 ff3e daf0 d6bd
000000b0: efa9 533d a07f 95bd f346 883e b182 d0bd
000000c0: 2859 ab3e 863b e2bd 8e8c 8c3e ca31 ae3d
000000d0: 6e66 743e af56 583e 0018 c83e 2aca 2ebe
000000e0: ceb1 ce3e 01e1 01be 64a1 463e 3f27 003e
000000f0: 3d8f a9be 620e 883d aad5 5cbe bb1e d53e
00000100: 4611 38be 0911 07bc 514d 873e 6b43 f0bd
00000110: 8be2 a93d f013 e4bc 36c7 683d bc5c aebd
00000120: c059 c4bd 37d5 dd3e 1a44 ae3e 5829 94bd
00000130: d69b d43e ad43 bd3e 4b09 783e 5eb3 ae3e
00000140: eb3d dc3e 07cf 8d3e 6b24 3fbe 07f5 ddbd
00000150: 147e d9be 3f49 97be 7c81 50be e322 7c3e
00000160: 5f4b cc3e 8545 50bd 0943 a83c 6d75 7bbd
00000170: d2dc 21be 1109 3c3e 594e 21be a943 1bbe
00000180: bf1a fbbd 2c7f bcbd eb2f b33e 27b8 8d3e
00000190: ed60 cbbb 1c92 ee3e 05ed 973e 6add 623e
000001a0: 82a7 07be fce0 16be 6f40 35be 1964 a53e
000001b0: 27db f03e a331 d3bd 826d cb3e 6c14 b43e
000001c0: 2b20 a93d 8a2e f33d 68ea 163d 75ff bb3e
000001d0: a7d3 0abc 640d 26bd a798 1abe 4393 e83e
000001e0: 7845 38bd 7f76 56be 50e4 a53e 84b6 d83e
000001f0: 0f68 873d 6805 d23e 4d5d 873a 5996 55be
0.4151557 -0.06524347 -0.12673233 -0.13290632 -0.05197879 0.03988704 0.3958299 -0.23739095
-0.15319742 -0.14445394 0.3743557 0.30226117 0.40211073 0.23175983 0.23244853 -0.041782465
-0.37881234 -0.06586705 0.44742265 -0.06835666 0.00524635 0.3340068 0.10540362 0.39569595
0.32526112 0.064882725 -0.40307117 -0.14118536 0.19478488 0.052031267 -0.040047053 0.22824962
0.019081322 0.25285918 0.16919331 0.4272866 0.045798033 0.17269972 0.27243105 -0.11174713
-0.21131314 -0.016113667 0.4997863 -0.104951575 0.051675733 -0.07299733 0.2661663 -0.101811774
0.33466458 -0.110465094 0.27450985 0.0850559 0.23867199 0.21126817 0.3908081 -0.17069307
0.4037003 -0.12683488 0.19397503 0.12514971 -0.33117095 0.06643368 -0.21565881 0.41625008
-0.1797534 -0.008243808 0.26426175 -0.11731609 0.08295163 -0.027841538 0.056830607 -0.085137814
-0.09587431 0.43326733 0.34036332 -0.07234448 0.41525143 0.36965695 0.24222295 0.3412122
0.4301599 0.27697012 -0.18666236 -0.10837751 -0.42479002 -0.2954807 -0.20361894 0.24622683
0.39901254 -0.05084755 0.020539777 -0.061391283 -0.15806893 0.18362834 -0.15752544 -0.15162529
-0.12260961 -0.092039436 0.34997496 0.2767956 -0.006206623 0.46595848 0.2967302 0.22154775
-0.13247493 -0.14734262 -0.1770036 0.3230293 0.470422 -0.10312202 0.39731985 0.3517183
0.08258089 0.11874111 0.03684464 0.36718336 -0.008473313 -0.040540114 -0.15097295 0.45424852
-0.044988126 -0.2094364 0.3240075 0.42326748 0.066116445 0.4101975 0.0010327488 -0.20858134

lin2.weight f4 [1, 128]
00000000: 9a6b 79be 2e31 a53d c490 a4bc 3059 263e
00000010: 0efb e43f ecfb 7040 93c1 5dbe 02c3 d83f
00000020: 1f1d 0940 2d56 883f e738 d3be bc73 00be
00000030: 8693 d3bd 3335 883f 1457 0fbe 1e33 a33c
00000040: dc14 033f 7956 0840 0765 e0bd c3b9 2dbc
00000050: d02f a5b9 67ef 1cbe 3454 4ebe aa7b 80be
00000060: eb01 b1be 3201 1540 6167 173e d192 ee3e
00000070: 145e ae3e 6cbf 36bc e326 d33c e031 c2bd
00000080: 40f9 1040 3eb4 5a3f 3770 923e 11b5 46be
00000090: 743c ed3f 2c9d ddbe d0ca 51be cfe4 933f
000000a0: 36ae 3e40 927c 013e 66ad 1c3f cb3c 2d39
000000b0: 5bed cd3f b006 2cbd 921a 5bbd 140e 63bc
000000c0: 995c c7be 1abe a83d 05d0 81be 52b5 7e3e
000000d0: b539 dabe c229 a8bd 15c2 303f ec3b 2a3b
000000e0: f3d1 33be 53cb 0c3f 5525 8d3e 5a6a 1440
000000f0: 6599 253e 94c3 8640 227b 183e 8ce8 86be
00000100: 6486 9a37 80ae c9bb 4f4e 79be fe9c 21bc
00000110: 4168 2f3d c3df 5ebd 1261 6a40 8429 4bbd
00000120: de8a a53e e32e 1dbf b77f b2be 1a3f 8b3f
00000130: cbb6 37be 9725 95be 1bcf 55be 9e4b 0dbe
00000140: 0d47 143f 0297 17be 583a bd3f 48a8 863f
00000150: 86d0 a23e 4f58 0440 10c0 1340 154a 0dbf
00000160: 970a c3bd 454b 513e aec4 af3f 8760 4640
00000170: a03c 543f 47c7 aebd fd76 98bd 694e 6abd
00000180: d909 b43f de3d a33f 0e91 fbbe 86d5 fbbd
00000190: 6a9e 063e b11f 01bf bc11 68be 55fd e5be
000001a0: b9ca 8940 d085 1040 21ed 113e c4e6 89bd
000001b0: 1f26 01bf 3f45 d8bc 1f8d 7cbe 1ea3 8ebe
000001c0: af08 0f3c 8585 7b40 a307 b73f 8636 2fbe
000001d0: 1e3e 863c 9342 a13d 1e4b 463d 48da 223f
000001e0: a6a6 febc f739 703e 05b7 79be 6513 e0be
000001f0: 7eb0 063e d2cf d4bd 88b8 fa3d 9942 123e
-0.24357453 0.08066021 -0.02008856 0.1624496 1.7889116 3.765376 -0.21655874 1.6934512
2.1424024 1.0651299 -0.4125435 -0.12544149 -0.10330872 1.0641235 -0.13998061 0.019921836
0.51203704 2.1302779 -0.109567694 -0.010603371 -0.00031506876 -0.153257 -0.20149308 -0.25094348
-0.34571776 2.328198 0.1478553 0.46596387 0.3405615 -0.011154037 0.025775379 -0.09482169
2.265213 0.8543128 0.28601238 -0.19405009 1.8534074 -0.43283975 -0.20487523 1.1554202
2.979383 0.12645176 0.61202085 0.00016521213 1.608806 -0.041998565 -0.053492136 -0.013858337
-0.38937834 0.08239384 -0.2535402 0.24873856 -0.42622152 -0.0821109 0.69046146 0.0025975658
-0.17560558 0.5499775 0.27567545 2.3189912 0.16171797 4.2113743 0.14890721 -0.26349294
1.8420811e-05 -0.006154835 -0.24346279 -0.00986409 0.042824034 -0.054412615 3.6621747 -0.04960014
0.3233251 -0.6139967 -0.34863064 1.0878632 -0.17940824 -0.2913024 -0.20879786 -0.13798377
0.57920915 -0.14803699 1.478343 1.0520105 0.31799716 2.06789 2.3085976 -0.55191165
-0.09523504 0.2043887 1.3731897 3.0996416 0.82905006 -0.08534103 -0.0744457 -0.057203684
1.4065505 1.2753255 -0.49134105 -0.12296586 0.13146368 -0.5043898 -0.22663015 -0.4491984
4.3059964 2.2581673 0.14250614 -0.06733468 -0.50448793 -0.026400207 -0.24663208 -0.27858824
0.008730098 3.9300244 1.4299206 -0.17110643 0.016387042 0.07874026 0.04841148 0.6361432
-0.031085324 0.23459612 -0.24386223 -0.43764797 0.13153264 -0.10391201 0.12242228 0.14283217
