parameters/task2_frgcn_task2_21.2127.pt (torch, 189173 bytes, 15 tensors)

convs.0.h_bias f4 [32]
-0.010781731 -0.06765217 -0.014880747 0.0217773 0.05852803 -0.025505759 0.040946677 0.06711554
0.0030150723 0.003474624 0.03463504 0.047829885 0.091030434 -0.040725682 -0.016791685 -0.034015242
0.08110447 0.009563549 -0.028215662 -0.0144617185 0.0698255 -0.060639013 0.0069205347 0.0009869661
-0.001143363 -0.020141397 -0.051264342 0.0016072573 0.08586906 0.005464479 0.017058684 -0.0045444015
00000000: dca5 30bc 398d 8abd 60ce 73bc 4f66 b23c
00000010: 16bb 6f3d 74f1 d0bc b4b7 273d df73 893d
00000020: 8598 453b 84b6 633b 79dd 0d3d 45e9 433d
00000030: 2a6e ba3d f9cf 26bd b78e 89bc 9153 0bbd
00000040: 1a1a a63d 6fb0 1c3c 8824 e7bc d8f0 6cbc
00000050: ac00 8f3d 9d60 78bd a7c5 e23b 165d 813a
00000060: e5dc 95ba 92ff a4bc 8ffa 51bd 9baa d23a
00000070: 1edc af3d 5f0f b33b a7be 8b3c 34e9 94bb

convs.0.loop_weight f4 [5, 32]
-0.4021446 -0.3855864 -0.5799576 0.060917456 -0.10964872 0.39984566 0.4869873 0.33670095
-0.18865843 -0.26492548 -0.30651668 0.14034702 0.40092823 -0.39969128 0.48488697 0.1231119
-0.48438874 -0.37996054 0.5399696 0.6684933 -0.4896835 0.43689394 0.47011766 0.31635416
0.41547775 -0.23562363 0.11632226 0.23602006 -0.15965386 0.14075176 -0.21845846 0.25541696
-0.31229898 -0.2868372 -0.12620622 0.2806333 -0.4461053 -0.2295422 0.26491114 -0.28836375
0.009714786 -0.013884295 0.13789943 -0.16837898 -0.30751565 -0.45351693 0.4248856 0.00537936
0.32632375 -0.4820367 0.26191965 0.2986071 -0.29542512 0.06547116 -0.108128294 -0.40895826
-0.34027135 -0.7171998 -0.6012932 0.25411323 -0.13699482 0.17650077 0.34583846 -0.2952633
0.06780955 0.40144613 -0.37953818 0.048348054 -0.14599238 0.53672403 -0.5203193 -0.47971404
0.55871254 -0.34457806 0.14423211 0.0008460686 -0.034630556 -0.16835663 0.3454616 -0.010085321
-0.4691409 -0.32638317 -0.22570309 0.27395135 -0.2957626 0.46797082 -0.12359929 -0.101784825
0.44752407 0.25952384 0.4266979 0.33328402 -0.0749611 -0.37084672 -0.021835545 0.463168
-0.1485057 -0.43857586 0.20454611 0.58594537 -0.22855766 -0.46630782 -0.40359887 0.11869145
0.0230772 -0.405967 0.050759446 0.1293925 0.3891759 0.43395638 -0.09601462 -0.4210902
-0.57343954 0.5940897 0.23310804 0.2755493 -0.47286946 0.5641377 0.50845313 0.52926457
-0.52161056 -0.1536828 -0.4209143 0.4719039 -0.27357373 -0.30166814 0.31063274 -0.28266442
-0.42424244 -0.08325191 -0.06823908 -0.41182452 0.57017136 -0.26310474 0.33987466 0.53293276
0.39075395 -0.08809691 0.5468426 0.07719943 -0.34685987 0.52457136 0.17143287 -0.5514186
-0.24287423 -0.47103316 0.6922402 0.06339005 -0.63290995 -0.0015455575 0.44662517 0.15362477
0.30017242 0.1414516 0.42163283 -0.14836001 -0.34678945 -0.49513093 -0.5228292 0.36326048
00000000: e6e5 cdbe 956b c5be 1a78 14bf 9584 793d
00000010: 828f e0bd 92b8 cc3e 6656 f93e 1164 ac3e
00000020: ad2f 41be 50a4 87be c1ef 9cbe 21b7 0f3e
00000030: 7746 cd3e 56a4 ccbe 1b43 f83e 1822 fc3d
00000040: cd01 f8be 308a c2be 733b 0a3f 6022 2b3f
00000050: ccb7 fabe 90b0 df3e 43b3 f03e 2cf9 a13e
00000060: 80b9 d43e 5247 71be 5d3a ee3d 3eaf 713e
00000070: 4d7c 23be 3b21 103e 93b3 5fbe 03c6 823e
00000080: a7e5 9fbe 53dc 92be 343c 01be 2baf 8f3e
00000090: ea67 e4be 1c0d 6bbe 6fa2 873e 6aa4 93be
000000a0: c42a 1f3c f47a 63bc 8235 0d3e 8a6b 2cbe
000000b0: b172 9dbe 5f33 e8be 9b8a d93e 5845 b03b
000000c0: e813 a73e 84cd f6be 551a 863e 08e3 983e
000000d0: f641 97be be15 863d 5e72 ddbd fa62 d1be
000000e0: 0c38 aebe 689a 37bf 5aee 19bf 211b 823e
000000f0: 5f48 0cbe 9ebc 343e bd11 b13e c02c 97be
00000100: bcdf 8a3d 598a cd3e d452 c2be 9c08 463d
00000110: 077f 15be bf66 093f a533 05bf 149d f5be
00000120: c907 0f3f 896c b0be 95b1 133e b4ca 5d3a
00000130: c5d8 0dbd ae65 2cbe 58e0 b03e e73c 25bc
00000140: 3c33 f0be b21b a7be b61e 67be 5a43 8c3e
00000150: 326e 97be df99 ef3e a021 fdbd 9074 d0bd
00000160: e021 e53e 4fe0 843e 2678 da3e 34a4 aa3e
00000170: 3585 99bd 9fdf bdbe 75e0 b2bc 5b24 ed3e
00000180: e111 18be 048d e0be 8974 513e 8400 163f
00000190: 050b 6abe e6bf eebe 83a4 cebe 8114 f33d
000001a0: 650c bd3c e8da cfbe 23e9 4f3d 787f 043e
000001b0: 1042 c73e 882f de3e 50a3 c4bd 2299 d7be
000001c0: efcc 12bf 4316 183f e0b3 6e3e cc14 8d3e
000001d0: f21b f2be 546b 103f fc29 023f e27d 073f
000001e0: 4588 05bf 065f 1dbe 1482 d7be 639d f13e
000001f0: db11 8cbe 3f74 9abe 410b 9f3e 64b9 90be
00000200: 4e36 d9be fa7f aabd eec0 8bbd aada d2be
00000210: c0f6 113f aab5 86be 0d04 ae3e 486e 083f
00000220: e710 c83e 276c b4bd e0fd 0b3f bc1a 9e3d
00000230: 9e97 b1be 4f4a 063f 198c 2f3e c529 0dbf
00000240: 06b4 78be 422b f1be a736 313f a4d2 813d
00000250: 6306 22bf 4e94 caba 0eac e43e d04f 1d3e
00000260: 33b0 993e b0d8 103e 42e0 d73e b0eb 17be
00000270: 638e b1be cd81 fdbe 22d8 05bf 47fd b93e

convs.0.linear_r.W f4 [3, 5, 32]
0.042167388 0.13857073 -0.37360123 -0.29450494 -0.12307229 0.11630098 0.007580152 0.40908527
0.009058386 0.08776973 -0.0941463 -0.00072285626 -0.3180468 -0.4354143 -0.23624435 -0.030004177
0.21750933 0.26235098 -0.3661002 -0.17720704 0.26559082 0.3573565 -0.20583202 0.38655403
0.004944588 0.08586175 0.41839933 -0.47310403 -0.24022116 -0.20806164 -0.17092393 0.5223214
-0.28987476 -0.20586711 -0.3124415 -0.4188428 -0.26105666 0.3844239 0.19955492 0.21675216
0.023519661 -0.22927903 0.07566169 -0.41756096 -0.32314146 -0.23055202 0.282164 0.26221082
-0.198337 -0.016136535 0.28602025 0.44458985 0.1774911 0.06041536 0.2998506 -0.26332042
0.08333558 -0.34672716 -0.30995753 -0.23102319 0.20235209 0.17985159 -0.2649081 0.1351064
0.2667725 -0.14619888 -0.008476363 -0.015822133 0.16920426 0.4311157 -0.07558807 -0.20592946
0.05592142 0.17836504 0.2695977 0.34800488 0.011830135 -0.39751485 -0.003313853 -0.22230719
-0.40169063 0.20808034 0.21434766 -0.40746534 0.040690213 -0.0091276085 -0.05707623 -0.21602172
0.05920571 -0.10538816 -0.011303815 0.32562524 0.3187431 -0.026811242 -0.5020636 -0.17698063
0.21544187 0.06501366 -0.2540299 -0.20900573 0.47318783 0.34563234 -0.18721758 -0.1458404
-0.45888177 0.030211683 -0.25452322 -0.3205071 0.0335931 0.070825785 -0.14396857 0.25208363
-0.17713407 0.4259072 0.27035037 -0.41568574 -0.12386455 -0.043916836 0.10325201 0.044016134
0.116639465 0.030173212 -0.2740247 0.19436292 -0.34229973 -0.2575213 -0.11269521 -0.28476068
-0.15645024 -0.36654595 -0.0951291 0.095594786 -0.29134434 -0.022950716 0.32013822 -0.04597367
0.012429057 -0.038580626 0.0905077 0.28435606 0.42362136 0.28400564 0.42459065 -0.032343227
-0.4017416 -0.21201378 0.30451006 -0.002899054 -0.22228588 -0.34270504 -0.41852576 -0.37745193
-0.090711355 0.24525462 0.24178204 -0.43130705 0.2789638 -0.34994885 -0.09454555 -0.18133287
-0.08614016 -0.08780713 -0.4013071 -0.38614115 -0.06997975 0.005783447 -0.2031579 0.168465
-0.40251833 -0.03018121 0.3932883 -0.18241484 0.40383527 0.16196008 -0.4035928 0.28295085
-0.051605977 -0.1996392 0.35761583 -0.36139116 0.047988225 -0.093632534 0.31936088 0.12483723
0.21488853 0.15793748 -0.10754356 -0.09405146 -0.3685404 0.24232006 0.3550778 0.30599466
-0.34493113 -0.004910578 -0.31744426 -0.26030537 -0.2513473 0.084274575 -0.23875695 -0.033636134
-0.041531358 0.35555077 -0.40637937 -0.3825941 -0.22786513 0.32871145 -0.13943231 0.47519866
0.27451503 0.08480188 0.029212538 -0.19349574 0.039183658 -0.16437815 0.0433347 0.0006289364
-0.45680392 -0.27224264 0.2861424 -0.31603664 0.056494217 0.5027745 0.16028672 -0.049871292
-0.3062879 0.171154 -0.39723006 -0.053662308 -0.105356164 -0.10564619 0.021040132 0.3580622
0.020944031 0.30826795 0.23756482 -0.28812838 0.16191256 -0.341252 -0.29807478 0.039388314
-0.004085187 0.2436942 -0.21626803 0.009767808 0.2672248 -0.31605208 0.30561832 -0.34286475
0.012766355 -0.07347001 -0.20937417 0.009372762 0.41867378 -0.091618925 -0.17114821 -0.079268776
00000000: b6b7 2c3d 7ce5 0d3e a948 bfbe 5ac9 96be
00000010: 530d fcbd 352f ee3d ec62 f83b a073 d13e
00000020: a069 143c 9ec0 b33d c6cf c0bd 107e 3dba
00000030: 08d7 a2be a0ee debe 0aea 71be 52cb f5bc
00000040: c4ba 5e3e de52 863e 7c71 bbbe c375 35be
00000050: 85fb 873e 6ef7 b63e a1c5 52be 69ea c53e
00000060: 3606 a23b 49d8 af3d 7038 d63e b13a f2be
00000070: 89fc 75be 1c0e 55be af06 2fbe dbb6 053f
00000080: 776a 94be d4ce 52be 55f8 9fbe 9072 d6be
00000090: 38a9 85be 36d3 c43e 2058 4c3e 47f4 5d3e
000000a0: 4eac c03c 1fc8 6abe 84f4 9a3d 8dca d5be
000000b0: cc72 a5be d415 6cbe cd77 903e 7f40 863e
000000c0: db18 4bbe c430 84bc 3f71 923e 48a1 e33e
000000d0: 3ac0 353e 1976 773d 0586 993e efd1 86be
000000e0: d8ab aa3d 3986 b1be c1b2 9ebe 5891 6cbe
000000f0: 6335 4f3e 042b 383e 09a2 87be 5559 0a3e
00000100: 6896 883e 29b5 15be 71e0 0abc 6b9d 81bc
00000110: e243 2d3e 32bb dc3e ebcd 9abd 2cdf 52be
00000120: dc0d 653d 53a5 363e b608 8a3e b22d b23e
00000130: 2fd3 413c 1187 cbbe 3a2d 59bb 7fa4 63be
00000140: 65aa cdbe 0313 553e f47d 5b3e 4c9f d0be
00000150: c8aa 263d f78b 15bc c4c8 69bd cc34 5dbe
00000160: b081 723d bfd5 d7bd a333 39bc 5ab8 a63e
00000170: 4c32 a33e 40a3 dbbc 3d87 00bf 693a 35be
00000180: cb9c 5c3e e225 853d 3510 82be 9905 56be
00000190: ad45 f23e b9f6 b03e f7b5 3fbe 3057 15be
000001a0: 8df2 eabe 7e7e f73c de50 82be 8219 a4be
000001b0: eb98 093d 1c0d 913d 7f6c 13be 1b11 813e
000001c0: a262 35be 8210 da3e 5d6b 8a3e c3d4 d4be
000001d0: b2ac fdbd 24e2 33bd ca75 d33d 434a 343d
000001e0: ace0 ee3d d02d f73c f74c 8cbe 1307 473e
000001f0: e941 afbe d5d9 83be bfcc e6bd 27cc 91be
00000200: 7e34 20be e9ab bbbe 0cd3 c2bd 33c7 c33d
00000210: 162b 95be 2403 bcbc 28e9 a33e e34e 3cbd
00000220: 3ea3 4b3c b806 1ebd 1a5c b93d 1e97 913e
00000230: e6e4 d83e 3069 913e f263 d93e 557a 04bd
00000240: 13b1 cdbe 241a 59be bee8 9b3e 0efe 3dbb
00000250: e99e 63be 0977 afbe 0249 d6be 6141 c1be
00000260: e0c6 b9bd 0724 7b3e b695 773e 47d4 dcbe
00000270: 58d4 8e3e 7f2c b3be 19a1 c1bd 53af 39be
00000280: 416a b0bd 39d4 b3bd 2078 cdbe 4bb4 c5be
00000290: 8b51 8fbd 1283 bd3b a008 50be 1782 2c3e
000002a0: e216 cebe 963e f7bc 165d c93e f5ca 3abe
000002b0: 7fc3 ce3e ddd8 253e b7a3 cebe efde 903e
000002c0: ca60 53bd 386e 4cbe 6c19 b73e 4308 b9be
000002d0: 4d8f 443d 6ac2 bfbd 4583 a33e a9aa ff3d
000002e0: bd0b 5c3e 5dba 213e cc3f dcbd 0d9e c0bd
000002f0: 54b1 bcbe c022 783e c2cc b53e 55ab 9c3e
00000300: d09a b0be eae8 a0bb 0e88 a2be bf46 85be
00000310: 98b0 80be 2698 ac3d b47c 74be 0bc6 09bd
00000320: c91c 2abd c00a b63e f510 d0be 60e3 c3be
00000330: 7a55 69be de4c a83e 58c7 0ebe 3d4d f33e
00000340: 3c8d 8c3e 9cac ad3d 224f ef3c bf23 46be
00000350: 0b7f 203d bf52 28be ba7f 313d 35df 243a
00000360: 34e2 e9be 6363 8bbe 4281 923e 8ecf a1be
00000370: 7b66 673d d4b5 003f 3422 243e d745 4cbd
00000380: c5d1 9cbe ff42 2f3e bd61 cbbe 02cd 5bbd
00000390: f9c4 d7bd 085d d8bd 5b5c ac3c ee53 b73e
000003a0: d192 ab3c 4cd5 9d3e 3144 733e 9085 93be
000003b0: 68cc 253e 95b8 aebe 429d 98be a455 213d
000003c0: 08dd 85bb f98a 793e 5e75 5dbe 2809 203c
000003d0: b0d1 883e 94d1 a1be 017a 9c3e f88b afbe
000003e0: f929 513c 7277 96bd 2f66 56be 3790 193c
000003f0: 695c d63e b4a2 bbbd 7a41 2fbe ab57 a2bd

convs.1.h_bias f4 [32]
0.01642533 0.017163098 -0.03061817 0.045025744 0.09490359 -0.019756332 -0.011621685 0.02445538
-0.01740082 0.011410117 -0.061753333 -0.02858412 0.024102153 -0.013338011 -0.009743922 0.0009117902
0.00821278 0.026613746 -0.01929937 -0.007536511 -0.008296294 -0.0037329353 -0.0007253346 -0.042317186
-0.03490304 0.03309224 -0.02952925 -0.010087564 0.0054394724 -0.061092746 -0.03570292 0.08046648
00000000: 6a8e 863c a099 8c3c f5d2 fabc ea6c 383d
00000010: d05c c23d 08d8 a1bc e168 3ebc a656 c83c
00000020: 2a8c 8ebc 80f1 3a3c 10f1 7cbd 3f29 eabc
00000030: e171 c53c ac87 5abc f9a4 1fbc 3405 6f3a
00000040: e58e 063c 1205 da3c b619 9ebc d6f4 f6bb
00000050: 2eed 07bc 43a4 74bb 6224 3eba c954 2dbd
00000060: 7df6 0ebd bb8b 073d 53e7 f1bc 4f46 25bc
00000070: 9a3d b23b 633c 7abd 3a3d 12bd 9ccb a43d

convs.1.loop_weight f4 [32, 32]
0.14305761 -0.5034512 0.12727728 0.2163578 -0.14130162 0.27888617 -0.44367623 -0.17526223
0.3452912 0.39462736 0.19749597 -0.281535 -0.3816857 -0.32692748 -0.06872251 0.34295756
0.18939516 -0.004948875 0.3293323 0.3302315 -0.2763048 -0.2635822 0.009071864 0.07234916
-0.024516568 0.022980157 0.24115995 -0.1252241 0.2893097 0.21290874 0.14953335 0.13488916
-0.10778985 -0.2055242 0.16800371 -0.24483375 0.1638244 -0.27081883 0.25983882 0.14415255
-0.08730261 0.26378536 -0.16011831 0.118892215 0.14677553 0.058964524 0.107492276 -0.0076104025
-0.13518427 0.2678063 0.21569106 0.1496565 0.3044695 -0.18098058 -0.12656455 -0.056818448
0.33985522 -0.3398233 -0.252363 -0.11057243 -0.3907341 -0.39158723 0.27776498 -0.005323603
-0.36160487 -0.06407198 0.003276019 -0.1986035 -0.30798197 0.2299098 0.022569014 0.42956024
-0.3438044 -0.26170567 -0.05299195 -0.32047573 0.32084203 0.36100864 0.37628183 -0.28058916
0.3182905 0.287079 -0.17854364 0.054635894 0.2034888 0.26049036 -0.39481425 0.45996836
-0.09075576 0.14851098 -0.32276618 -0.32551944 -0.27560857 0.30491236 -0.16915675 0.44704276
0.11386261 0.17941873 -0.0782591 -0.10799709 -0.10954038 -0.21688014 0.3840819 -0.018067276
-0.23175736 -0.4763753 -0.022708358 -0.50565505 -0.025637519 0.24553077 -0.29617378 0.24057065
-0.12913784 -0.312221 -0.46675947 0.1639948 -0.2824308 0.11469088 0.080769084 0.21630281
-0.35825258 0.3651235 -0.49087065 -0.3572606 0.30808735 -0.03643028 -0.21725069 -0.0901176
-0.41978684 -0.50423586 -0.055923827 0.4545551 0.18049875 0.102622285 -0.11495005 0.4372907
-0.088811144 0.061433118 0.031647146 0.13655154 0.11446062 0.36793685 0.23828591 0.050371163
0.1431837 -0.06664838 0.29471928 0.15269873 0.3114878 -0.0788598 -0.33618304 0.2048542
0.15891127 0.36137545 0.13819343 0.13363183 0.37690604 -0.0020945529 0.3617196 0.2365168
0.2925543 0.31819296 -0.34014672 0.2752282 0.4889073 -0.32477915 -0.07426407 -0.27830523
-0.13131891 0.098117776 0.20439976 -0.12645541 -0.39829183 0.23099706 0.26062596 -0.013717459
0.4062166 0.36499017 -0.06800261 0.027996298 0.02273864 -0.099359594 -0.1198678 -0.22474508
-0.27065536 0.23323965 -0.16703361 -0.21678586 0.39896244 0.094020195 0.26506698 0.40847954
-0.0828257 0.058609005 0.4056913 -0.33410865 -0.21181206 0.07406707 -0.040834907 0.11206006
0.2596141 -0.20397381 0.09756321 0.43396506 -0.2713249 -0.27972376 -0.3162156 0.2178719
-0.45007715 -0.22146448 0.30656585 -0.28271547 0.40745625 -0.1693136 0.07502804 0.09180177
0.0018876736 0.23681298 0.429444 -0.26359725 0.22724298 0.12760113 0.028638484 -0.39821494
0.08997203 0.30444032 -0.4010022 -0.45061243 -0.3985712 0.057331603 -0.034190804 -0.09291967
0.4605605 -0.13286711 -0.24216296 0.051252935 -0.2682476 -0.13195877 0.2369133 0.015425872
-0.40560234 0.39550596 0.14982885 -0.28823 0.23769762 0.18702325 -0.30257043 -0.29786322
-0.34013999 0.1278155 0.12231625 0.18791744 -0.18562764 0.30784905 0.087898746 -0.253017
00000000: b27d 123e 2ee2 00bf fa54 023e e68c 5d3e
00000010: 5fb1 10be 2bca 8e3e 8829 e3be f177 33be
00000020: 02ca b03e 990c ca3e 623c 4a3e 5b25 90be
00000030: 4f6c c3be 0a63 a7be 63be 8cbd 2298 af3e
00000040: cef0 413e 2c2a a2bb 3e9e a83e 1a14 a93e
00000050: d377 8dbe 3ff4 86be 28a2 143c cc2b 943d
00000060: f8d6 c8bc e240 bc3c a2f2 763e bf3a 00be
00000070: 6720 943e c004 5a3e 451f 193e 6220 0a3e
00000080: edc0 dcbd f074 52be 2a09 2c3e b3b5 7abe
00000090: 95c1 273e c4a8 8abe 9809 853e ba9c 133e
000000a0: b6cb b2bd e00e 873e 0ef6 23be c37d f33d
000000b0: 534c 163e c984 713d e924 dc3d af60 f9bb
000000c0: bf6d 0abe e81d 893e 1ede 5c3e 8e3f 193e
000000d0: 6de3 9b3e f952 39be 239a 01be 76ba 68bd
000000e0: 8101 ae3e 52fd adbe b935 81be cc73 e2bd
000000f0: 4d0e c8be 1f7e c8be 3637 8e3e 9e71 aebb
00000100: 4624 b9be 2c38 83bd 7ab2 563b b75e 4bbe
00000110: d0af 9dbe 7a6d 6b3e a7e2 b83c 52ef db3e
00000120: 2107 b0be 49fe 85be 160e 59bd 6515 a4be
00000130: 6845 a43e 20d6 b83e 03a8 c03e 62a9 8fbe
00000140: f9f6 a23e 05fc 923e 25d4 36be e3c9 5f3d
00000150: 5e5f 503e fe5e 853e 1825 cabe f980 eb3e
00000160: 28de b9bd 4313 183e 9c41 a5be 7caa a6be
00000170: 911c 8dbe 791d 9c3e 6d37 2dbe cae2 e43e
00000180: cd30 e93d 8bb9 373e 4f46 a0bd 942d ddbd
00000190: b556 e0bd d415 5ebe 62a6 c43e d301 94bc
000001a0: cd51 6dbe 77e7 f3be e106 babc 9c72 01bf
000001b0: c605 d2bc 6b6c 7b3e 17a4 97be 2758 763e
000001c0: b63c 04be 6edb 9fbe 19fb eebe 41ee 273e
000001d0: c59a 90be 0de3 ea3d 436a a53d 7c7e 5d3e
000001e0: e26c b7be 78f1 ba3e 6653 fbbe ddea b6be
000001f0: a0bd 9d3e eb37 15bd f776 5ebe 948f b8bd
00000200: 4dee d6be 9a15 01bf 6210 65bd 72bb e83e
00000210: aad4 383e a22b d23d ef6a ebbd 91e4 df3e
00000220: 9ee2 b5bd 4ba1 7b3d 70a0 013d 2bd4 0b3e
00000230: 546a ea3d 3862 bc3e 3901 743e fe51 4e3d
00000240: bf9e 123e f27e 88bd 72e5 963e 0e5d 1c3e
00000250: 547b 9f3e 3f81 a1bd 2f20 acbe 4dc5 513e
00000260: a3b9 223e 3406 b93e 9482 0d3e c8d6 083e
00000270: d4f9 c03e c444 09bb 5033 b93e 7631 723e
00000280: adc9 953e 30ea a23e b627 aebe b6ea 8c3e
00000290: 0f52 fa3e 7449 a6be c317 98bd 067e 8ebe
000002a0: 7778 06be f9f1 c83d 2c4e 513e 877d 01be
000002b0: e8ec cbbe 7e8a 6c3e c470 853e 31bf 60bc
000002c0: 9ffb cf3e fedf ba3e f444 8bbd 7e58 e53c
000002d0: 6246 ba3c 0b7d cbbd 407d f5bd 9323 66be
000002e0: 5793 8abe 60d6 6e3e dc0a 2bbe 1dfd 5dbe
000002f0: ce44 cc3e a98d c03d dcb6 873e 3b24 d13e
00000300: 85a0 a9bd ff0f 703d c5b6 cf3e 4a10 abbe
00000310: 43e5 58be 7ab0 973d 8142 27bd bf7f e53d
00000320: 24ec 843e 83de 50be 38cf c73d ab30 de3e
00000330: 19eb 8abe f437 8fbe 03e7 a1be d019 5f3e
00000340: 8370 e6be 96c7 62be 33f6 9c3e 15c0 90be
00000350: 1b9e d03e 8b60 2dbe 4da8 993d 9102 bc3d
00000360: d16b f73a 1a7f 723e 15e0 db3e 38f6 86be
00000370: 62b2 683e dfa9 023e 419b ea3c d4e2 cbbe
00000380: 4143 b83d 9adf 9b3e 2950 cdbe acb6 e6be
00000390: 8611 ccbe 8bd4 6a3d a80b 0cbd ab4c bebd
000003a0: 96ce eb3e 510e 08be 91f9 77be 99ee 513d
000003b0: c057 89be 3320 07be 6699 723e ccbc 7c3c
000003c0: 1cab cfbe c27f ca3e bc6c 193e e292 93be
000003d0: 0167 733e 0683 3f3e 83ea 9abe 8781 98be
000003e0: d426 aebe 11e2 023e f180 fa3d 6e6d 403e
000003f0: 2c15 3ebe 649e 9d3e 4204 b43d 728b 81be

convs.1.linear_r.W f4 [3, 32, 32]
-0.13828047 -0.0588645 0.070201926 -0.08390378 -0.04705278 0.14920147 -0.0913741 0.122759
-0.053419836 -0.0031575453 0.019974934 -0.09989118 0.08639963 -0.11907393 -0.12992477 -0.03849752
0.0010950901 0.1757854 -0.15754554 0.08380124 -0.07227397 -0.23131432 0.11623849 -0.12307898
-0.07275357 0.13281202 -0.06546493 0.16231555 0.0184773 0.20623766 -0.18870631 0.036345907
0.042292904 0.10782426 0.06887706 0.11436339 -0.025818521 -0.040594447 0.06140434 -0.07305752
0.09001893 -0.13322209 0.075177416 -0.033159737 0.148243 0.11468753 -0.06874282 -0.10009307
0.10456802 -0.0343891 0.12582257 -0.14334653 0.09188583 0.16153038 0.04518031 -0.1259622
0.06747164 -0.06166866 0.032717757 0.07124634 -0.080524616 0.08088105 -0.15260294 -0.008516822
-0.06607051 -0.0221265 0.012108656 0.1412414 -0.042269245 0.13176544 0.06298449 -0.12149598
-0.15020438 -0.13311897 0.028365184 -0.1920612 0.0070358566 0.025929632 0.16026787 0.04574435
0.22719647 -0.04229829 -0.06535714 -0.09416804 -0.17058 0.037607852 0.22607662 -0.14875507
0.189166 -0.15199244 -0.03349816 0.1460147 -0.010090508 0.0012044614 -0.15585598 0.20421492
-0.019984012 -0.15941359 0.06074279 -0.058744445 -0.11162412 0.022869766 0.21347725 -0.03676824
0.07335815 0.13777506 0.004661196 -0.00464358 -0.049944323 -0.018929342 -0.10914179 -0.092047065
0.087207325 0.2743518 0.010550048 0.105332896 -0.051003568 0.1430407 -0.121017784 -0.11821041
0.101744026 0.09573456 -0.17028244 0.13053335 0.04607429 -0.10367966 -0.028187867 0.19531745
-0.1814558 -0.08483749 0.071904056 -0.19621998 0.02839401 0.10386473 0.17654493 -0.12110883
0.25661254 -0.07418565 0.05758088 -0.20295611 -0.17997032 0.11377289 0.0558268 0.052003186
-0.10362049 -0.038627382 -0.11974512 -0.12152233 0.031908765 -0.075339675 -0.007872403 0.053342048
0.1808637 -0.050940707 -0.066437736 -0.06386157 -0.11438278 -0.15469871 -0.0537781 7.794447e-05
0.07281954 -0.110541865 0.1668049 -0.19740643 -0.013437345 0.13049236 0.12223319 -0.14536707
0.08928625 0.028687034 -0.053880196 -0.014889993 -0.000552248 -0.15019837 0.031835824 0.17907797
-0.06650226 0.12350922 -0.11463966 0.07223667 0.11032653 -0.08102822 0.094380654 0.0028666337
-0.10042924 -0.055253882 -0.001763198 -0.06820333 0.05169175 0.014274373 0.081331916 -0.07229695
0.023154404 0.020337114 -0.15187086 0.062374692 0.046226148 -0.06083659 -0.0036295105 0.040913533
-0.07414583 0.12449359 -0.021041 -0.056832686 0.11639474 -0.0026825285 0.059972353 0.03859066
0.0145243285 -0.0044048573 0.084744275 0.13645236 -0.014629045 -0.09082516 0.08118046 -0.1418547
0.06979525 -0.0074339737 0.108450145 -0.15107039 0.10110211 0.16021034 0.07938805 0.034607172
0.18991837 -0.058954723 -0.042748988 -0.009404278 0.04992647 0.071834266 0.04044727 -0.015334389
-0.27616262 -0.00882905 -0.020607468 0.050625723 0.16383556 0.20608273 -0.115960784 -0.12783481
-0.08312407 -0.13278998 -0.07999101 0.1784636 0.14981607 0.10503552 0.10457946 -0.14859425
0.100025035 0.2182983 -0.1106343 0.19509451 0.047592603 0.1360498 -0.018211413 0.13970304
00000000: 6599 0dbe e71b 71bd 07c6 8f3d bfd5 abbd
00000010: 6aba 40bd 45c8 183e 5822 bbbd 1269 fb3d
00000020: c2ce 5abd d2ee 4ebb 79a2 a33c bf93 ccbd
00000030: 4af2 b03d 08dd f3bd 000b 05be 93af 1dbd
00000040: 2089 8f3a 1701 343e 9e53 21be fc9f ab3d
00000050: 6004 94bd a9dd 6cbe 720e ee3d d510 fcbd
00000060: d3ff 94bd e0ff 073e 7a12 86bd 0c36 263e
00000070: b55d 973c f72f 533e 3a3c 41be 72df 143d
00000080: 533b 2d3d f7d2 dc3d 6b0f 8d3d 5a37 ea3d
00000090: 5d81 d3bc 5d46 26bd 1e83 7b3d 2e9f 95bd
000000a0: d85b b83d 5f6b 08be 9ef6 993d 81d2 07bd
000000b0: 03cd 173e 4ce1 ea3d 09c9 8cbd 98fd ccbd
000000c0: c227 d63d 96db 0cbd a2d7 003e 6fc9 12be
000000d0: a32e bc3d 3868 253e fd0e 393d 3cfc 00be
000000e0: 922e 8a3d 4798 7cbd 0e03 063d 9ae9 913d
000000f0: 17ea a4bd f7a4 a53d f243 1cbe 248a 0bbc
00000100: fa4f 87bd a242 b5bc 6263 463c 96a1 103e
00000110: 8422 2dbd 85ed 063e 03fe 803d e2d2 f8bd
00000120: 2dcf 19be 5750 08be 1a5e e83c b1ab 44be
00000130: 0b8d e63b 616a d43c 431d 243e 6d5e 3b3d
00000140: 31a6 683e f940 2dbd f7d9 85bd 2cdb c0bd
00000150: 86ac 2ebe b10a 1a3d a180 673e 4053 18be
00000160: bbb4 413e e8a3 1bbe 5e35 09bd e184 153e
00000170: a852 25bc 05df 9d3a b698 1fbe b71d 513e
00000180: 83b5 a3bc 513d 23be 6fcd 783d 049e 70bd
00000190: 309b e4bd 6059 bb3c c899 5a3e 4b9a 16bd
000001a0: cc3c 963d e814 0d3e f2bc 983b 2c29 98bb
000001b0: 6b92 4cbd b511 9bbc bb85 dfbd 2c83 bcbd
000001c0: c199 b23d d777 8c3e 1cda 2c3c c6b8 d73d
000001d0: 1ee9 50bd 4379 123e 2cd8 f7bd 4d18 f2bd
000001e0: 2c5f d03d 7b10 c43d 855e 2ebe 89aa 053e
000001f0: 65b8 3c3d 0056 d4bd 3eea e6bc 4c01 483e
00000200: 8dcf 39be 47bf adbd 6f42 933d e4ed 48be
00000210: 8e9a e83c 08b7 d43d 32c8 343e e807 f8bd
00000220: b862 833e a5ee 97bd eed9 6b3d bad3 4fbe
00000230: 244a 38be c301 e93d a5aa 643d 4b01 553d
00000240: fb36 d4bd bf37 1ebd ee3c f5bd b3e0 f8bd
00000250: c4b2 023d b04b 9abd 40fb 00bc 317d 5a3d
00000260: 5534 393e 34a7 50bd 8210 88bd dbc9 82bd
00000270: 8541 eabd 5769 1ebe 6d46 5cbd 1e76 a338
00000280: 6922 953d c663 e2bd e7ce 2a3e e924 4abe
00000290: 4f28 5cbc ca9f 053e 6555 fa3d 1bdb 14be
000002a0: b6db b63d 1201 eb3c 7bb1 5cbd 28f5 73bc
000002b0: bcc4 10ba 9acd 19be 4866 023d 3760 373e
000002c0: 5632 88bd 67f2 fc3d 33c8 eabd d2f0 933d
000002d0: e0f2 e13d 20f2 a5bd a54a c13d 22de 3b3b
000002e0: d8ad cdbd e551 62bd 1b1b e7ba 30ae 8bbd
000002f0: baba 533d 0fdf 693c 5991 a63d 6c10 94bd
00000300: 4eae bd3c 059a a63c 0984 1bbe 9b7c 7f3d
00000310: a157 3d3d ca2f 79bd 15dd 6dbb f394 273d
00000320: c5d9 97bd 7ff6 fe3d 2d5e acbc 64c9 68bd
00000330: 5e60 ee3d 5ccd 2fbb 92a5 753d 3d11 1e3d
00000340: 73f7 6d3c 9f56 90bb 688e ad3d 2bba 0b3e
00000350: a9ae 6fbc 8b02 babd f141 a63d 5c42 11be
00000360: d0f0 8e3d b198 f3bb 1c1b de3d 32b2 1abe
00000370: a00e cf3d 2e0e 243e 3496 a23d 40c0 0d3d
00000380: f679 423e 827a 71bd 9019 2fbd 6714 1abc
00000390: b37f 4c3d d81d 933d 09ac 253d 173d 7bbc
000003a0: 3065 8dbe b8a7 10bc fed0 a8bc eb5c 4f3d
000003b0: 82c4 273e 5a07 533e d97c edbd 21e7 02be
000003c0: f43c aabd 19fa 07be 54d2 a3bd 29bf 363e
000003d0: 6269 193e dd1c d73d c22d d63d 1729 18be
000003e0: edd9 cc3d 9789 5f3e 3c94 e2bd dbc6 473e
000003f0: 76f0 423d a450 0b3e 1a30 95bc 500e 0f3e

convs.2.h_bias f4 [32]
0.06724783 -0.0005827513 -0.004020008 0.056267004 -0.08160514 -0.054267105 0.019676859 0.054919336
0.06751073 -0.025211705 -0.028833179 0.007942959 -0.045508653 0.024398929 -0.00827079 -0.03888134
0.03960847 -0.0113970535 -0.054014284 0.059893817 0.0031207283 0.0223182 -0.015100359 0.022495322
-0.0091234585 -0.05441792 -0.026929332 0.09881053 0.01198001 0.0056769317 0.042872436 -0.023581775
00000000: 3bb9 893d c7c3 18ba 45ba 83bb 3b78 663d
00000010: 9820 a7bd 2f47 5ebd 5d31 a13c 19f3 603d
00000020: 1143 8a3d c788 cebc 8f33 ecbc 2f23 023c
00000030: 4867 3abd 43e0 c73c 3582 07bc 0a42 1fbd
00000040: 7e3c 223d b5ba 3abc 153e 5dbd 3853 753d
00000050: 2285 4c3b a8d4 b63c 7f67 77bc 1c48 b83c
00000060: 8f7a 15bc 53e5 5ebd e79a dcbc 2d5d ca3d
00000070: ce47 443c 8e05 ba3b 029b 2f3d 912e c1bc

convs.2.loop_weight f4 [32, 32]
0.082277276 0.5335876 -0.25577134 -0.2983837 0.28342494 0.30241066 0.28555614 -0.1092473
0.2305021 -0.27792123 -0.22532335 0.11404955 -0.32164097 -0.03149989 -0.18010923 0.43956795
-0.09558548 0.09580134 0.11253207 0.28666422 0.05531671 0.24318677 -0.34327596 -0.3131948
0.30908483 0.22343089 -0.14639144 0.34926602 0.13623452 -0.3332879 0.10925292 0.5319035
-0.09798415 0.3548577 -0.100912586 -0.48133072 -0.29711717 -0.00448232 0.45676222 0.14291757
0.2983847 0.2634899 0.11998276 -0.24018298 -0.44032398 -0.17686169 -0.15620361 0.40236256
-0.1210248 -0.06998933 0.15016346 0.29324463 -0.06097002 0.2734486 -0.29429775 -0.47646084
0.07010244 0.26792628 0.36899686 0.036230147 0.30276585 -0.26985523 -0.022558559 0.34509376
-0.31163302 0.31949386 -0.32534856 0.2678657 0.26676765 0.44981116 -0.11460617 -0.088888556
-0.299602 0.4277195 0.004800652 -0.11090035 0.054008212 0.22448148 -0.2226479 -0.31236356
-0.1238661 0.14883469 0.06799148 -0.2043614 0.061364904 -0.09965403 0.31383747 -0.2680285
0.41739452 0.034247626 0.3212561 0.12634209 -0.34546885 0.27828488 -0.19141196 -0.22376534
0.20188464 0.16394511 -0.25105536 -0.19330277 0.43181178 -0.46895754 -0.0099646095 -0.06788743
-0.3842201 0.17356776 -0.3857874 0.053697836 -0.096876755 0.20461848 -0.11440333 -0.3833338
-0.052720707 0.28994352 -0.19086598 0.23420142 0.3433135 -0.079388455 -0.102042966 0.35287243
0.03511178 0.12855703 0.012155523 0.06371543 -0.2939161 -0.31211102 0.37396625 0.3438278
0.026757654 0.42208695 -0.18937308 0.19731298 -0.21577208 0.28942627 0.2757761 0.19269018
0.011152612 0.27520767 0.22511066 0.2158561 -0.19724691 0.03426313 -0.09702256 -0.30329496
0.12591417 0.3795766 0.21977553 -0.06773597 0.23222518 -0.017930489 0.42443183 -0.4084582
0.11228892 -0.4286574 0.18488976 0.35814127 0.33730567 -0.115643114 0.07725654 0.06626101
-0.1961166 0.37023687 0.2651056 0.19207041 -0.2199251 0.28875753 -0.22021237 -0.40718782
-0.16655606 -0.0860728 0.2823527 0.16530725 0.15444386 -0.17296128 0.3215395 0.41471577
-0.42606613 0.45566794 0.08857359 0.17869474 0.14924812 0.18671975 0.039952587 -0.115876846
-0.16426203 -0.28908783 -0.056259684 -0.3275 0.3157265 -0.28184298 0.38520122 -0.354217
0.38528654 0.05582579 -0.44569892 0.14165936 -0.41346076 -0.38097733 0.024037153 -0.09281776
0.14912306 0.33219266 -0.40830967 0.43262833 -0.2864511 -0.049143903 0.27048224 -0.19546025
-0.20253892 -0.122965425 0.13989115 0.05228199 0.37494904 0.21430428 -0.4032364 -0.29448596
0.051684264 -0.051905494 -0.14823702 0.22842811 0.18746185 -0.2387641 -0.06733634 0.11244047
0.12608758 -0.04539325 0.13660963 0.05958426 -0.509743 -0.4742188 -0.05687924 0.14541426
-0.358744 -0.17059356 -0.4166232 0.06471731 0.47767377 0.43912038 -0.35325631 0.32882288
-0.2191878 -0.38905475 0.26846516 0.4096896 -0.041389715 -0.10498075 0.015091191 0.29991522
0.14313324 -0.077045225 -0.012815643 0.1368382 0.02845215 0.079011954 0.037833255 0.112860054
00000000: fd80 a83d 3299 083f 76f4 82be c0c5 98be
00000010: 131d 913e 92d5 9a3e 6a34 923e 0cbd dfbd
00000020: be08 6c3e b14b 8ebe 2abb 66be cf92 e93d
00000030: 20ae a4be 0706 01bd 8e6e 38be 0d0f e13e
00000040: 52c2 c3bd 7e33 c43d 3777 e63d a7c5 923e
00000050: c693 623d f405 793e dec1 afbe 125b a0be
00000060: 5e40 9e3e 11cb 643e a3e7 15be ffd2 b23e
00000070: 1081 0b3e b6a4 aabe ffbf df3d d42a 083f
00000080: eaab c8bd e9af b53e 42ab cebd fb70 f6be
00000090: be1f 98be 6de0 92bb bddc e93e fc58 123e
000000a0: e1c5 983e 26e8 863e 85b9 f53d 87f2 75be
000000b0: 2572 e1be 3b1b 35be d7f3 1fbe 7702 ce3e
000000c0: dadb f7bd 9156 8fbd 73c4 193e 2924 963e
000000d0: b3bb 79bd 7401 8c3e 32ae 96be adf2 f3be
000000e0: de91 8f3d a22d 893e 28ed bc3e 1066 143d
000000f0: 2004 9b3e 772a 8abe bacc b8bc 21b0 b03e
00000100: 5d8e 9fbe b394 a33e 1694 a6be b125 893e
00000110: c595 883e a64d e63e a4b6 eabd 340b b6bd
00000120: 6f65 99be 0dfe da3e ca4e 9d3b b91f e3bd
00000130: b737 5d3d 79de 653e d0fd 63be 1eee 9fbe
00000140: 83ad fdbd 1f68 183e 1e3f 8b3d 1d44 51be
00000150: c459 7b3d 6917 ccbd 4eaf a03e 083b 89be
00000160: bcb4 d53e 3d47 0c3d ae7b a43e d25f 013e
00000170: 4be1 b0be 5b7b 8e3e 7f01 44be be22 65be
00000180: d9ba 4e3e 3ae1 273e 548a 80be 29f1 45be
00000190: 6f16 dd3e 341b f0be 9a42 23bc 9108 8bbd
000001a0: 7fb8 c4be bfbb 313e ed85 c5be 43f2 5b3d
000001b0: 5267 c6bd 8287 513e 4b4c eabd 5444 c4be
000001c0: abf1 57bd 7a73 943e 5f72 43be 7fd2 6f3e
000001d0: c9c6 af3e 6a96 a2bd e7fb d0bd b2ab b43e
000001e0: 5fd1 0f3d 74a4 033e f527 473c 3c7d 823d
000001f0: 2c7c 96be 04cd 9fbe 8178 bf3e 330a b03e
00000200: de32 db3c c81b d83e 04eb 41be 6a0c 4a3e
00000210: 5bf3 5cbe ae2f 943e 8632 8d3e 9350 453e
00000220: 72b9 363c 05e8 8c3e 6983 663e 6209 5d3e
00000230: 18fb 49be 7f57 0c3d c4b3 c6bd 7a49 9bbe
00000240: a5ef 003e dd57 c23e d60c 613e 28b9 8abd
00000250: 70cc 6d3e f6e2 92bc 214f d93e 6f21 d1be
00000260: bcf7 e53d fc78 dbbe be53 3d3e 4b5e b73e
00000270: 54b3 ac3e 4cd6 ecbd ad38 9e3d dab3 873d
00000280: cad2 48be b08f bd3e ecbb 873e 1bae 443e
00000290: 0c34 61be 07d8 933e 5a7f 61be ec7a d0be
000002a0: ac8d 2abe f046 b0bd 8890 903e 4e46 293e
000002b0: 8826 1e3e c31c 31be d3a0 a43e a055 d43e
000002c0: 5725 dabe 4f4d e93e 1266 b53d c1fb 363e
000002d0: 80d4 183e 7633 3f3e 53a5 233d d750 edbd
000002e0: 4e34 28be 5203 94be 8e70 66bd 14ae a7be
000002f0: e7a6 a13e b94d 90be 1839 c53e ee5b b5be
00000300: 4744 c53e 95a9 643d a632 e4be 270f 113e
00000310: 21b1 d3be 760f c3be 90e9 c43c 3d17 bebd
00000320: b7b3 183e 2815 aa3e f70d d1be 7681 dd3e
00000330: b8a9 92be 1e4b 49bd a67c 8a3e bb26 48be
00000340: 5d66 4fbe 4cd5 fbbd a03f 0f3e a425 563d
00000350: 52f9 bf3e 9572 5b3e 0075 cebe ddc6 96be
00000360: e1b2 533d db9a 54bd 72cb 17be 0fe9 693e
00000370: 00f6 3f3e 947e 74be a3e7 89bd 3047 e63d
00000380: 1a1d 013e 46ee 39bd 65e3 0b3e a00e 743d
00000390: 847e 02bf cecc f2be 35fa 68bd 7ae7 143e
000003a0: 4bad b7be 14b0 2ebe a34f d5be 828a 843d
000003b0: a891 f43e 63d4 e03e 03de b4be 795b a83e
000003c0: c472 60be 2f32 c7be 4474 893e d6c2 d13e
000003d0: 4388 29bd 2600 d7bd 0b41 773c 7d8e 993e
000003e0: 8591 123e e3c9 9dbd b4f8 51bc 501f 0c3e
000003f0: 7c14 e93c 05d1 a13d 0bf7 1a3d 2c23 e73d

convs.2.linear_r.W f4 [3, 32, 32]
-0.052208405 0.08274899 -0.121059075 0.013436303 0.012561115 -0.22186951 0.13648732 0.19614327
-0.12429513 0.07391038 -0.11394677 -0.069881506 0.008641256 -0.024238123 -0.08611847 0.011041828
0.111739546 0.060430713 -0.1042324 0.09679346 -0.12579286 0.12801866 0.19003844 0.030976648
-0.068119444 0.16704495 0.05439673 -0.11270814 -0.0911092 -0.14219496 0.13272521 0.06849691
-0.06378931 0.09996538 0.089990556 -0.1947044 0.090042055 0.083682336 -0.04411539 -0.078406945
-0.05398079 0.20542355 0.15002957 0.0040667118 0.07051165 -0.09843251 0.09102666 -0.018351465
-0.119310685 0.16531667 0.12849751 0.011610378 0.052465234 0.0015415547 0.089913145 0.009843403
0.021816613 -0.0016300109 0.03764431 -0.07948767 -0.17515214 0.033582747 0.03414181 -0.08481414
0.12788221 0.07166859 0.07156568 0.017303396 -0.14600731 -0.103864394 0.044704933 -0.065355025
0.20402555 -0.09283194 -0.14679079 -0.0402754 0.1732309 -0.04600625 0.18012631 0.050027337
-0.014702462 0.12211265 0.027088301 -0.021777906 -0.09511451 0.23983002 0.14475916 -0.080728255
-0.052859712 0.14304076 0.044195265 0.02491013 -0.1264997 -0.027280573 -0.04321939 -0.009573993
-0.02844151 -0.11639939 0.007058109 0.1489072 -0.07446743 -0.18764998 0.08814119 0.18569045
-0.25417688 -0.087465554 -0.097156644 0.22566684 -0.105257936 -0.0669457 0.08193622 -0.07007912
-0.0018504871 -0.12810817 0.001194735 0.06297988 0.096364684 0.068898015 -0.08229708 -0.011156959
0.12749523 0.07743966 0.014496645 -0.18662778 -0.047833867 -0.041678518 0.09193047 0.059239272
-0.122476205 -0.15251416 -0.06531357 0.072407335 0.11678681 0.10778914 0.015280651 0.15456477
0.2036319 0.120051436 0.09124542 -0.084699735 0.09783778 -0.13163364 -0.10772049 0.0801434
-0.1281325 -0.15043412 -0.16058621 -0.17248745 0.16304402 0.1458199 -0.060614374 0.100060984
-0.101500034 0.15157206 -0.098510414 -0.11878824 -0.22112009 0.11163108 -0.044327166 0.16589044
0.100571014 -0.1532713 -0.0018432289 -0.06142556 -0.1330043 -0.07727303 0.025451303 -0.055460136
-0.13285933 -0.13806176 -0.12327429 0.11276668 -0.038337056 -0.008453833 -0.14924605 -0.19949733
-0.0769113 -0.15965949 -0.08315561 -0.19903912 -0.08017606 -0.20521294 0.033650376 0.0055521587
0.11669853 -0.2126236 0.12020182 0.06788522 0.15591744 0.027330488 0.061587244 -0.1724761
0.06203158 0.09910344 0.08723872 -0.096349426 -0.07459082 -0.102126 0.13483456 0.022521477
0.04413332 -0.14460148 -0.029344833 -0.045111 -0.1305596 -0.119084306 0.15146855 0.15386142
0.013913189 0.16988313 -0.001866278 0.056452744 -0.10421816 -0.18919018 0.05074275 0.19943243
-0.20143156 0.045448225 -0.24995887 -0.09311447 -0.119794704 -0.061958965 0.33802095 -0.057811715
0.0016797263 0.13646252 -0.061162192 -0.12477387 0.20544192 -0.05525294 -0.09977497 -0.013373305
-0.097332664 0.074880846 0.1295091 -0.115248345 0.18399581 -0.21191464 0.027174758 -0.04479465
-0.03646229 0.15910691 -0.16712381 -0.073637664 0.16542216 0.11082741 -0.2012152 0.057807464
0.21044359 -0.17976223 0.038759 -0.12407399 0.020282216 -0.2731972 0.0151649695 0.049175117
00000000: 7bd8 55bd 4d78 a93d d2ed f7bd f023 5c3c
00000010: 23cd 4d3c c331 63be 55c3 0b3e c8d9 483e
00000020: 728e febd 535e 973d ed5c e9bd 091e 8fbd
00000030: 0e94 0d3c 078f c6bc e15e b0bd c9e8 343c
00000040: b4d7 e43d 3286 773d cc77 d5bd a63b c63d
00000050: d8cf 00be 5317 033e 7099 423e bdc2 fd3c
00000060: 3582 8bbd d50d 2b3e 1bcf 5e3d 86d3 e6bd
00000070: 7697 babd 8e9b 11be 1ee9 073e 1c48 8c3d
00000080: f8a3 82bd a6ba cc3d f84c b83d 9760 47be
00000090: f867 b83d a561 ab3d 57b2 34bd d293 a0bd
000000a0: f61a 5dbd 8d5a 523e 5aa1 193e 0d42 853b
000000b0: 6968 903d fc96 c9bd 2f6c ba3d d055 96bc
000000c0: 2959 f4bd c648 293e da94 033e 7439 3e3c
000000d0: c9e5 563d fe0d ca3a 6224 b83d 3946 213c
000000e0: c1b8 b23c 17a6 d5ba ec30 1a3d 6eca a2bd
000000f0: 155b 33be 108e 093d 48d8 0b3d 09b3 adbd
00000100: 8ef3 023e fbc6 923d 0791 923d dabf 8d3c
00000110: f182 15be dbb6 d4bd 851c 373d dbd8 85bd
00000120: 13ec 503e ac1e bebd 5350 16be d1f7 24bd
00000130: 7163 313e 0d71 3cbd 0873 383e 77e9 4c3d
00000140: 98e2 70bc 3216 fa3d 49e8 dd3c 9467 b2bc
00000150: 65cb c2bd 0096 753e bf3b 143e db54 a5bd
00000160: 6d83 58bd 4779 123e 1806 353d 5410 cc3c
00000170: 2389 01be 827b dfbc d106 31bd 3ddc 1cbc
00000180: 2bfe e8bc ce62 eebd b647 e73b 217b 183e
00000190: 6182 98bd 5127 40be 5e83 b43d a325 3e3e
000001a0: 7923 82be 2421 b3bd 10fa c6bd 3515 673e
000001b0: 7991 d7bd d41a 89bd 2dce a73d a485 8fbd
000001c0: 0b8c f2ba ca2e 03be a898 9c3a 98fb 803d
000001d0: d95a c53d 671a 8d3d 5f8b a8bd aecb 36bc
000001e0: 1c8e 023e af98 9e3d 5683 6d3c 5a1b 3fbe
000001f0: 72ed 43bd 18b7 2abd 0b46 bc3d e1a4 723d
00000200: ced4 fabd ac2c 1cbe 1fc3 85bd 4c4a 943d
00000210: ec2d ef3d 8dc0 dc3d b25b 7a3c 3a46 1e3e
00000220: e184 503e 87dd f53d e1de ba3d 0e77 adbd
00000230: 2d5f c83d f8ca 06be 8f9c dcbd 3922 a43d
00000240: 2b35 03be 670b 1abe b670 24be 8da0 30be
00000250: 03f5 263e d051 153e c746 78bd c6ec cc3d
00000260: 40df cfbd b535 1b3e d4bf c9bd 4047 f3bd
00000270: 4e6d 62be d69e e43d 6790 35bd 2fdf 293e
00000280: 2df8 cd3d 27f3 1cbe 8098 f1ba 5e99 7bbd
00000290: 4732 08be 5341 9ebd 407f d03c 2b2a 63bd
000002a0: 470c 08be 1060 0dbe 3b77 fcbd 38f2 e63d
000002b0: 5107 1dbd f281 0abc f5d3 18be 0749 4cbe
000002c0: ac83 9dbd c77d 23be 7d4d aabd e9d0 4bbe
000002d0: 5933 a4bd 5723 52be fad4 093d e2ee b53b
000002e0: a4ff ee3d 00ba 59be 5f2c f63d 6807 8b3d
000002f0: d2a8 1f3e 30e4 df3c e842 7c3d 939d 30be
00000300: d314 7e3d bff6 ca3d 37aa b23d d952 c5bd
00000310: 12c3 98bd 7027 d1bd 1212 0a3e f67e b83c
00000320: 24c5 343d 6912 14be 9364 f0bc 50c6 38bd
00000330: 6ab1 05be 79e2 f3bd 921a 1b3e d98d 1d3e
00000340: 25f4 633c d8f5 2d3e e69d f4ba fe3a 673d
00000350: 5570 d5bd 12bb 41be a1d7 4f3d 0438 4c3e
00000360: 1344 4ebe eb27 3a3d 38f5 7fbe cdb2 bebd
00000370: ed56 f5bd afc8 7dbd 1511 ad3e facb 6cbd
00000380: 432a dc3a d5bc 0b3e 3585 7abd 7189 ffbd
00000390: 5e5f 523e e850 62bd d256 ccbd b51b 5bbc
000003a0: 5956 c7bd 215b 993d 099e 043e 5307 ecbd
000003b0: 6669 3c3e 2700 59be 999d de3c 987a 37bd
000003c0: 7b59 15bd ecec 223e 8122 2bbe 58cf 96bd
000003d0: 6d64 293e 7bf9 e23d 5b0b 4ebe 85c7 6c3d
000003e0: 867e 573e 9713 38be c2c1 1e3d 811a febd
000003f0: e426 a63c 81e0 8bbe 7e76 783c d96b 493d

convs.3.h_bias f4 [32]
0.0022492243 0.00681444 -0.08136784 0.06440924 -0.015871322 -0.056093425 -0.002741419 0.0868747
0.047570847 -0.060831208 0.052582204 0.04059594 0.033803828 -0.06221306 -0.06336117 -0.07505259
-0.050741307 -0.0051369164 -0.044593323 -0.009772811 0.020948928 -0.007633817 0.039800607 0.03319018
0.03269906 -0.07083308 0.024395062 0.016036425 0.027795102 -0.004527232 0.026227959 0.027997507
00000000: b967 133b aa4b df3b 2fa4 a6bd fee8 833d
00000010: 9304 82bc 38c2 65bd 61a9 33bb 5deb b13d
00000020: a6d9 423d 252a 79bd 7060 573d ee47 263d
00000030: e275 0a3d 1fd3 7ebd 80c3 81bd 2cb5 99bd
00000040: 1ed6 4fbd 9453 a8bb 7da7 36bd 241e 20bc
00000050: 169d ab3c 1925 fabb f605 233d 6df2 073d
00000060: 73ef 053d ef10 91bd 27d8 c73c d25e 833c
00000070: 8eb2 e33c 2d59 94bb 04dc d63c 075b e53c

convs.3.loop_weight f4 [32, 32]
0.07729881 0.11850483 -0.31745434 -0.22952415 -0.32381532 0.30881715 -0.43613666 0.055325534
0.29798746 0.2111708 0.28420207 0.33165884 -0.13890845 -0.18194225 0.066266075 -0.18174072
-0.28842396 0.20676619 0.2044853 0.102232665 -0.37661454 -0.33495685 0.22608277 -0.032802265
-0.32106608 0.14097892 0.22390233 0.3192769 0.32012057 -0.15955482 0.20783328 -0.36626744
0.21059479 -0.36629623 0.03794905 0.3140688 0.35249722 0.2674068 -0.0154170785 0.16488437
-0.048753574 0.4197861 0.17893848 0.3993388 -0.16619746 0.27845198 0.41957462 0.3329664
-0.15586106 0.13818951 -0.17483003 -0.45957074 0.30230528 -0.4074961 0.31242514 -0.13582116
-0.182973 -0.2246685 -0.13600937 0.119567685 -0.3113299 0.4040326 0.13214532 0.3446816
-0.33420438 -0.27625364 -0.057174545 -0.28748396 -0.27486274 -0.07834287 -0.4959376 0.2728329
0.024634901 -0.24309556 -0.39429212 0.3442655 0.34936872 0.19260496 -0.14086482 0.39149743
0.2775892 -0.09795874 0.19160478 0.53563184 0.16706795 -0.46645725 0.16321015 -0.06264262
0.18680073 -0.18308978 -0.1397786 0.3168134 0.12201785 0.14783187 0.4436512 -0.38573042
0.37119406 -0.41251245 0.32692242 0.14725624 0.28602555 0.12900443 0.30286658 0.2409825
-0.45405278 0.40676254 -0.16553447 0.14889385 -0.25442073 -0.4527236 0.174957 -0.35402668
0.094979726 0.27265292 0.34161046 -0.1768214 -0.04780366 0.37489468 -0.5112226 -0.067283526
-0.35882652 -0.46308294 -0.15776162 -0.24352017 0.47473902 -0.018637031 -0.17474417 -0.025106821
0.12357062 0.43777505 0.15373762 0.4781935 0.03421751 0.34151486 -0.35134003 0.45001554
0.09468631 -0.31644818 -0.17183997 0.27201024 0.3031856 0.07906763 0.20761324 -0.3322811
-0.3813535 -0.07355351 -0.13075104 0.13195977 0.19614716 -0.049238473 -0.44403794 0.13085344
-0.2756051 0.0032375117 -0.05757851 0.4951338 0.32760432 -0.19408733 0.060028844 -0.15891293
-0.030991431 0.30151072 -0.02121526 0.13233307 0.29520315 0.038926512 0.26267913 -0.12281712
0.49260685 0.17328718 -0.16837884 -0.40652308 -0.037211414 -0.452164 0.03643688 0.18045066
-0.4448782 -0.49010578 0.20135954 -0.32367113 0.18788034 -0.027578553 0.16835772 0.47239867
0.38731897 -0.45501858 -0.16757607 0.36256218 0.45561582 -0.26306805 -0.3939841 0.3669361
-0.17557515 0.19684023 -0.35695216 0.16330159 0.1695139 -0.039094497 -0.17394565 0.26475644
-0.10666859 -0.16498473 0.18932767 -0.2491553 0.12943086 -0.042693313 -0.30039275 0.6002256
0.4733114 0.38844588 -0.07820204 -0.0088460045 -0.37805617 0.18985024 0.4273426 0.38897553
0.04624739 0.18823598 0.021321863 0.18817995 -0.097869486 -0.3518479 0.32200408 -0.30589756
-0.023037398 -0.4257615 -0.29826644 0.24822457 0.327967 0.46500695 -0.4390282 0.33596373
-0.50012696 0.07440335 0.26298407 0.053102802 0.100531675 0.20908712 -0.27195466 0.08937024
0.0310944 0.050905783 0.08841421 -0.10407957 0.13465309 -0.07790571 0.26209846 0.11467054
-0.42324638 0.056113966 -0.36082032 0.16662332 0.27115884 0.10165167 0.18066902 0.105463564
00000000: d74e 9e3d a9b2 f23d 6089 a2be 6108 6bbe
00000010: 1fcb a5be 481d 9e3e 4e4d dfbe 079d 623d
00000020: d091 983e 283d 583e ef82 913e 30cf a93e
00000030: 043e 0ebe 124f 3abe 82b6 873d 3d1a 3abe
00000040: 4eac 93be 84ba 533e 9864 513e 5c5f d13d
00000050: 9fd3 c0be 777f abbe 3e82 673e ab5b 06bd
00000060: c662 a4be c75c 103e a746 653e 4378 a33e
00000070: d8e6 a33e 5762 23be 3fd2 543e 6887 bbbe
00000080: 29a6 573e 2e8b bbbe 7770 1b3d a0cd a03e
00000090: 847a b43e 8be9 883e ea97 7cbc 73d7 283e
000000a0: d4b1 47bd 34ee d63e a63b 373e 2376 cc3e
000000b0: ab2f 2abe 4291 8e3e 7cd2 d63e 927a aa3e
000000c0: 0b9a 1fbe 8d81 0d3e a506 33be db4c ebbe
000000d0: c2c7 9a3e 54a3 d0be 30f6 9f3e b414 0bbe
000000e0: 465d 3bbe 800f 66be 0a46 0bbe e7df f43d
000000f0: a266 9fbe 5cdd ce3e 1a51 073e 1b7a b03e
00000100: d61c abbe 1e71 8dbe db2f 6abd 1931 93be
00000110: cfba 8cbe 3a72 a0bd 88eb fdbe c1b0 8b3e
00000120: 22cf c93c 0bee 78be a8e0 c9be 9143 b03e
00000130: 75e0 b23e 3c3a 453e de3e 10be 5a72 c83e
00000140: 2c20 8e3e 989e c8bd 0b34 443e 2b1f 093f
00000150: dc13 2b3e 7cd3 eebe 9020 273e c64a 80bd
00000160: b148 3f3e e37b 3bbe 1f22 0fbe 5e35 a23e
00000170: 7fe4 f93d 3d61 173e 4026 e33e 757e c5be
00000180: 260d be3e d534 d3be 6062 a73e 57ca 163e
00000190: f171 923e bd19 043e 5411 9b3e 1ec4 763e
000001a0: 9b79 e8be 2e43 d03e de81 29be a177 183e
000001b0: 6f43 82be 63cb e7be ee27 333e fc42 b5be
000001c0: bb84 c23d 2a99 8b3e 91e7 ae3e ab10 35be
000001d0: c5cd 43bd 32f2 bf3e 7cdf 02bf f2cb 89bd
000001e0: 1cb8 b7be 3519 edbe 438c 21be 5a5d 79be
000001f0: fe10 f33e b0ac 98bc 23f0 32be d2ac cdbc
00000200: 9812 fd3d 0d24 e03e 656d 1d3e c7d5 f43e
00000210: a927 0c3d 09db ae3e d7e2 b3be 7068 e63e
00000220: e5ea c13d 7f05 a2be d1f6 2fbe ed44 8b3e
00000230: 253b 9b3e 36ee a13d 9198 543e c020 aabe
00000240: c440 c3be 39a3 96bd 9ae3 05be 7620 073e
00000250: cdda 483e 48ae 49bd f158 e3be 72fe 053e
00000260: 1d1c 8dbe 6f2c 543b 72d7 6bbd 2d82 fd3e
00000270: c1bb a73e d4be 46be cee0 753d 12ba 22be
00000280: bee1 fdbc 9d5f 9a3e a0cb adbc 5282 073e
00000290: de24 973e 6871 1f3d e17d 863e 8b87 fbbd
000002a0: f736 fc3e 3272 313e 816b 2cbe cb23 d0be
000002b0: ff6a 18bd 0a82 e7be d63e 153d 0fc8 383e
000002c0: 13c7 e3be 25ef fabe 3231 4e3e 39b8 a5be
000002d0: b463 403e 6bec e1bc f765 2c3e 3dde f13e
000002e0: ac4e c63e 32f8 e8be 1099 2bbe c0a1 b93e
000002f0: 7a46 e93e dbb0 86be 49b8 c9be 0cdf bb3e
00000300: f9c9 33be 7c90 493e 6fc2 b6be 8838 273e
00000310: 0d95 2d3e 8d21 20bd cf1e 32be 288e 873e
00000320: 1075 dabd c2f1 28be 1ddf 413e 9122 7fbe
00000330: 8689 043e 2fdf 2ebd 14cd 99be 63a8 193f
00000340: df55 f23e 61e2 c63e 6428 a0bd d5ee 10bc
00000350: 9490 c1be 1a68 423e a6cc da3e cd27 c73e
00000360: e76d 3d3d efc0 403e 30ab ae3c 3fb2 403e
00000370: cc6f c8bd 6825 b4be b8dd a43e 9b9e 9cbe
00000380: edb8 bcbc 69fd d9be 61b6 98be 952e 7e3e
00000390: 4aeb a73e 6415 ee3e 4ec8 e0be 7003 ac3e
000003a0: 5208 00bf c960 983d d9a5 863e 5382 593d
000003b0: 8de3 cd3d ef1a 563e a43d 8bbe bf07 b73d
000003c0: afb9 fe3c 9582 503d 8212 b53d ab27 d5bd
000003d0: 80e2 093e 078d 9fbd c531 863e 63d8 ea3d
000003e0: c0b3 d8be c2d7 653d 71bd b8be 4e9f 2a3e
000003f0: 55d5 8a3e c02e d03d 4d01 393e 48fd d73d
