parameters/task1_frgcn_task1_0.9287.pt (torch, 189173 bytes, 15 tensors)

convs.0.h_bias f4 [32]
-0.05392454 -0.17955865 0.14726086 -0.004373004 -0.15195417 -0.060729947 0.20233838 -0.042484194
0.0683934 0.05512182 0.022563796 0.06460478 0.06285628 -0.16110076 0.14216661 -0.05736476
0.117384255 -0.0734547 -0.12057513 0.25334042 -0.021757966 -0.15659928 -0.039080374 -0.035335526
0.032547094 0.22972554 0.0023220594 -0.06918934 0.14589922 0.037105173 0.035124138 -0.115378015
00000000: fadf 5cbd 39de 37be 8dcb 163e 6b4b 8fbb
00000010: e099 1bbe f7bf 78bd cb31 4f3e e803 2ebd
00000020: d711 8c3d 6bc7 613d b6d7 b83c 834f 843d
00000030: cbba 803d 99f7 24be 2094 113e 50f7 6abd
00000040: 2867 f03d 6b6f 96bd 18f0 f6bd d6b5 813e
00000050: c33d b2bc 905b 20be be12 20bd fcbb 10bd
00000060: 1a50 053d 2c3d 6b3e b12d 183b 24b3 8dbd
00000070: 9b66 153e 98fb 173d 54de 0f3d 4f4b ecbd

convs.0.loop_weight f4 [5, 32]
0.35047862 -0.8546979 -0.48992583 0.128582 -0.2736786 0.9031204 0.59913456 0.35527948
0.07348031 1.0121876 -0.46081287 0.19127165 0.37031242 -1.7492285 0.7251253 -0.20138092
-1.3891073 -0.64409333 0.36491942 0.67198753 -0.62777644 1.3784078 0.16892183 -0.10485295
1.7014253 1.575779 0.41138437 0.18746102 0.03655481 0.0798996 -0.018912109 -0.50846833
0.1779663 -0.54101354 -0.15931155 0.53554887 -0.171397 -0.013352014 0.1521052 1.8369784
0.5142207 -0.2962082 -0.6752347 2.0058808 0.21826668 -0.72101766 -0.18301879 2.7403133
-1.1557292 -0.53247696 1.1143174 1.1315557 -1.1151494 0.6329411 -0.32782933 -0.03028887
-0.157223 -0.48669344 0.4481566 -0.5551259 -0.3111707 0.42574072 0.554457 -0.10111872
-0.026468692 0.27343452 -0.19045298 0.12118207 -0.34663263 0.580024 -0.38829443 -0.48737055
0.6131019 -0.2628399 0.3116967 0.028067444 0.027087387 -0.19301815 0.4718442 -0.13540033
-0.38919488 -0.4277699 -0.36722547 0.351918 -0.4120596 0.4188729 0.0035411525 -0.0565571
0.41105452 0.34483415 0.58410054 0.27889827 -0.016615998 -0.34510607 -0.05328343 0.37040865
-0.20612904 -0.28069133 0.27564493 0.4078619 -0.21511038 -0.48230657 -0.30245 0.018846191
-0.026659902 -0.34109396 0.0038216596 0.0042617884 0.40727797 0.5360411 -0.019865952 -0.38387907
-0.35662267 0.481282 0.22117105 0.30602714 -0.45529747 0.12168288 0.28151163 0.40807852
-0.47623786 -0.11386528 -0.46001187 0.5417673 -0.40943888 -0.35521156 0.3564369 -0.32708046
-0.044275094 -0.12196025 0.064428784 -0.45434558 0.4885489 -0.47722194 0.18571989 0.2652968
0.2620865 0.11762455 0.47889802 0.079106085 -0.35411498 0.45270818 0.29041755 -0.56861717
-0.28566757 -0.28030425 0.5125874 0.038302578 -0.5236103 -0.002114873 0.18256275 0.20869888
0.3851904 0.1368986 0.14286572 -0.17214696 -0.11122894 -0.5197342 -0.4505081 0.2739505
00000000: ef71 b33e 7bcd 5abf 8fd7 fabe 00ab 033e
00000010: 9a1f 8cbe e632 673f e260 193f 31e7 b53e
00000020: d87c 963d 5d8f 813f aaef ebbe b7dc 433e
00000030: 9799 bd3e b8e6 dfbf d0a1 393f cd36 4ebe
00000040: 45ce b1bf 4de3 24bf b8d6 ba3e 6007 2c3f
00000050: f5b5 20bf ab6f b03f d8f9 2c3e 25bd d6bd
00000060: 4ec8 d93f 20b3 c93f f9a0 d23e c8f5 3f3e
00000070: 7fba 153d 67a2 a33d 91ed 9abc fb2a 02bf
00000080: cc3c 363e dd7f 0abf 9122 23be bb19 093f
00000090: b282 2fbe 68c2 5abc 77c1 1b3e 1c22 eb3f
000000a0: f8a3 033f 9aa8 97be 2edc 2cbf 5a60 0040
000000b0: 4d81 5f3e 9d94 38bf 4769 3bbe 4b61 2f40
000000c0: efee 93bf 6950 08bf f4a1 8e3f d1d6 903f
000000d0: 37bd 8ebf 6e08 223f 3fd9 a7be 5d20 f8bc
000000e0: 11ff 20be e22f f9be c874 e53e bb1c 0ebf
000000f0: c451 9fbe b0fa d93e e5f0 0d3f 5517 cfbd
00000100: dfd4 d8bc 9cff 8b3e 1b06 43be 4e2e f83d
00000110: d579 b1be 747c 143f 87ce c6be a288 f9be
00000120: 3ff4 1c3f f492 86be b696 9f3e b2ed e53c
00000130: 5ee6 dd3c 8da6 45be 9095 f13e 62a6 0abe
00000140: 8d44 c7be a804 dbbe fa04 bcbe 992e b43e
00000150: 7af9 d2be 8276 d63e ae12 683b 6ba8 67bd
00000160: bd75 d23e 1a8e b03e 9d87 153f c1cb 8e3e
00000170: 461e 88bc beb1 b0be ba3f 5abd 34a6 bd3e
00000180: 7e13 53be c6b6 8fbe 5521 8d3e 46d3 d03e
00000190: e545 5cbe e3f0 f6be bada 9abe 5463 9a3c
000001a0: de65 dabc dea3 aebe cf74 7a3b 79a6 8b3b
000001b0: bd86 d03e fd39 093f ecbd a2bc cc8b c4be
000001c0: 3f97 b6be 986a f63e aa7a 623e 97af 9c3e
000001d0: c01c e9be e034 f93d 4b22 903e abef d03e
000001e0: 73d5 f3be 3332 e9bd ad86 ebbe 43b1 0a3f
000001f0: f9a1 d1be 4ade b5be e67e b63e 1777 a7be
00000200: cd59 35bd 4cc6 f9bd 3df3 833d fc9f e8be
00000210: 1523 fa3e 6f56 f4be 5b2d 3e3e fbd4 873e
00000220: 3430 863e 24e5 f03d 1f32 f53e 5f02 a23d
00000230: 8f4e b5be 5ec9 e73e 9cb1 943e e590 11bf
00000240: 0543 92be 0a84 8fbe ee38 033f 2ae3 1c3d
00000250: 530b 06bf ae99 0abb bbf1 3a3e 29b5 553e
00000260: ad37 c53e 262f 0c3e 644b 123e 4b47 30be
00000270: 00cc e3bd 4d0d 05bf ffa8 e6be 3d43 8c3e

convs.0.linear_r.W f4 [3, 5, 32]
-0.033371367 0.5573114 -0.8624614 -0.48805955 -0.12714443 0.111059256 0.3636052 0.48559502
-0.060420368 0.0600881 -0.22435671 -0.29033718 -0.5962545 -0.27655423 -2.062827 0.13220668
0.30886352 0.2284778 -0.28002602 -0.19602449 0.27257738 4.2273417 2.6751082 0.3399365
-0.11998791 0.07425214 0.35193565 -0.4913004 -0.5832556 -0.20733936 -0.2297033 0.47032794
-0.28987476 -0.20586711 -0.3124415 -0.4188428 -0.26105666 0.3844239 0.19955492 0.21675216
0.023519661 -0.22927903 0.07566169 -0.41756096 -0.32314146 -0.23055202 0.282164 0.26221082
-0.198337 -0.016136535 0.28602025 0.44458985 0.1774911 0.06041536 0.2998506 -0.26332042
0.08333558 -0.34672716 -0.30995753 -0.23102319 0.20235209 0.17985159 -0.2649081 0.1351064
0.17501573 0.03263999 0.009911498 0.033940367 0.2718265 0.39600176 -0.1240742 -0.036333233
0.076327555 0.20666717 0.25650406 0.20828018 0.04486122 -0.111541204 0.0066850395 -0.4145873
-0.77732843 0.7641125 0.28143734 -0.15708898 0.03430761 -0.0007021731 -0.0040584267 -0.05116995
0.26312843 -0.25531393 0.13036172 0.014880398 0.28023484 0.18415835 -0.519213 -0.12029675
0.23480304 0.05967412 -0.2063351 -0.3272991 0.3570413 0.3440202 -0.14501846 -0.1509616
-0.4857118 0.03074649 -0.24627271 -0.4404545 0.030947527 -0.0032646952 -0.13149597 0.074182555
-0.14392102 0.3422058 0.12902941 -0.32181638 0.052384607 -0.0018131175 0.048953656 0.0697771
0.1368716 0.005525543 -0.17285812 0.22606382 -0.32461956 -0.20109423 -0.12161815 -0.31472144
-0.15645024 -0.36654595 -0.0951291 0.095594786 -0.29134434 -0.022950716 0.32013822 -0.04597367
0.012429057 -0.038580626 0.0905077 0.28435606 0.42362136 0.28400564 0.42459065 -0.032343227
-0.4017416 -0.21201378 0.30451006 -0.002899054 -0.22228588 -0.34270504 -0.41852576 -0.37745193
-0.090711355 0.24525462 0.24178204 -0.43130705 0.2789638 -0.34994885 -0.09454555 -0.18133287
0.06541709 -0.23693605 -0.48352757 -0.29656285 -0.17473789 -0.3507728 -0.3227486 0.082028255
-0.42728975 -0.0350472 0.25673264 -0.24834418 0.46859315 0.17926516 -0.37384325 0.3096724
-0.0914602 -0.06283526 0.18461646 -0.24006142 0.0059701726 0.32015455 0.16838823 0.1835035
0.21251315 0.21437281 -0.22988422 -0.07785355 -0.270318 0.32519734 0.4944928 0.19752477
-0.42016307 -0.17489217 -0.12068403 -0.15144657 -0.39721626 0.17401509 -0.11447884 0.048821326
0.07074161 0.38575843 -0.13554995 -0.22979832 -0.112624176 0.24719483 -0.05079444 0.21459885
0.32698834 -0.034933906 -0.17641322 -0.023066983 0.012594206 -0.22024041 0.12724261 0.102764495
-0.3849902 -0.17580326 0.4622262 -0.41345808 0.12403018 0.47513294 0.15063967 -0.08826575
-0.6079479 -0.06556622 -0.53839666 -0.07022529 -0.49632543 0.026877167 -0.076089546 0.07489942
-0.06164548 0.54727036 0.024721168 -0.25811908 0.39371696 -0.29426673 -0.02665734 0.2581269
-0.0021804255 1.053927 -0.20813178 -0.0028202678 -0.0863449 0.009013199 1.084861 -1.1729298
-0.0074932305 -0.009592526 -0.29029846 0.011156047 1.1415517 -0.16661324 -0.06094191 -0.11630095
00000000: 6ab0 08bd f6ab 0e3f 45ca 5cbf f1e2 f9be
00000010: 2632 02be 0973 e33d 762a ba3e e99f f83e
00000020: 597b 77bd f11e 763d c4bd 65be 13a7 94be
00000030: 23a4 18bf 8498 8dbe 5c05 04c0 3061 073e
00000040: 5c23 9e3e 16f6 693e 925f 8fbe a5ba 48be
00000050: 438f 8b3e 6246 8740 f934 2b40 280c ae3e
00000060: 39bc f5bd 8211 983d e930 b43e ba8b fbbe
00000070: 3d50 15bf c550 54be 5837 6bbe d3ce f03e
00000080: 776a 94be d4ce 52be 55f8 9fbe 9072 d6be
00000090: 38a9 85be 36d3 c43e 2058 4c3e 47f4 5d3e
000000a0: 4eac c03c 1fc8 6abe 84f4 9a3d 8dca d5be
000000b0: cc72 a5be d415 6cbe cd77 903e 7f40 863e
000000c0: db18 4bbe c430 84bc 3f71 923e 48a1 e33e
000000d0: 3ac0 353e 1976 773d 0586 993e efd1 86be
000000e0: d8ab aa3d 3986 b1be c1b2 9ebe 5891 6cbe
000000f0: 6335 4f3e 042b 383e 09a2 87be 5559 0a3e
00000100: 5337 333e 83b1 053d d663 223c 0e05 0b3d
00000110: d82c 8b3e bec0 ca3e 9d1a febd 28d2 14bd
00000120: 9f51 9c3d 8fa0 533e 8054 833e 6647 553e
00000130: 66c0 373d b76f e4bd 2d0e db3b c944 d4be
00000140: fffe 46bf e09c 433f 8e18 903e efdb 20be
00000150: 2386 0c3d 0a12 38ba 8dfc 84bb 9597 51bd
00000160: c5b8 863e 82b8 82be 8b7d 053e eacc 733c
00000170: f17a 8f3e 0294 3c3e 25eb 04bf 245e f6bd
00000180: 3570 703e da6c 743d 8249 53be bf93 a7be
00000190: 1ece b63e 6a23 b03e b87f 14be ad95 1abe
000001a0: 38af f8be 10e0 fb3c ea2e 7cbe 4183 e1be
000001b0: ab85 fd3c 7ff4 55bb e1a6 06be 06ed 973d
000001c0: 0860 13be 9935 af3e 4920 043e 1ec5 a4be
000001d0: 3e91 563d 21a6 edba a183 483d 4ce7 8e3d
000001e0: 1228 0c3e 9d0f b53b b801 31be 467d 673e
000001f0: 8934 a6be a5eb 4dbe f012 f9bd 2b23 a1be
00000200: 7e34 20be e9ab bbbe 0cd3 c2bd 33c7 c33d
00000210: 162b 95be 2403 bcbc 28e9 a33e e34e 3cbd
00000220: 3ea3 4b3c b806 1ebd 1a5c b93d 1e97 913e
00000230: e6e4 d83e 3069 913e f263 d93e 557a 04bd
00000240: 13b1 cdbe 241a 59be bee8 9b3e 0efe 3dbb
00000250: e99e 63be 0977 afbe 0249 d6be 6141 c1be
00000260: e0c6 b9bd 0724 7b3e b695 773e 47d4 dcbe
00000270: 58d4 8e3e 7f2c b3be 19a1 c1bd 53af 39be
00000280: 65f9 853d 5d9f 72be ed90 f7be 16d7 97be
00000290: 7dee 32be 7e98 b3be 4e3f a5be 6efe a73d
000002a0: b9c5 dabe a78d 0fbd 7672 833e f04d 7ebe
000002b0: 71eb ef3e 4991 373e 6268 bfbe 618d 9e3e
000002c0: 7c4f bbbd c6af 80bd 190c 3d3e a9d2 75be
000002d0: 70a1 c33b 4ceb a33e f76d 2c3e 57e8 3b3e
000002e0: 0c9d 593e 8c84 5b3e c566 6bbe af71 9fbd
000002f0: 1f67 8abe 4480 a63e 292e fd3e ef43 4a3e
00000300: 9d1f d7be ef16 33be 3029 f7bd cf14 1bbe
00000310: ee5f cbbe 0331 323e e273 eabd dff8 473d
00000320: fae0 903d 2182 c53e 9bcd 0abe 4050 6bbe
00000330: 81a7 e6bd a420 7d3e d50d 50bd cdbf 5b3e
00000340: 046b a73e db16 0fbd aba5 34be f8f6 bcbc
00000350: ee57 4e3c b486 61be e34b 023e 3176 d23d
00000360: 6f1d c5be c505 34be eaa8 ec3e c7b0 d3be
00000370: 8903 fe3d a044 f33e 4941 1a3e acc4 b4bd
00000380: 79a2 1bbf 9547 86bd 5dd4 09bf 47d2 8fbd
00000390: 5e1e febe 812d dc3c d6d4 9bbd de64 993d
000003a0: f97f 7cbd e919 0c3f 0c84 ca3c 2f28 84be
000003b0: 4595 c93e 21aa 96be 7e60 dabc 3629 843e
000003c0: 78e5 0ebb 14e7 863f 7f20 55be 3ed4 38bb
000003d0: 98d5 b0bd 19ac 133c badc 8a3f 9022 96bf
000003e0: c689 f5bb f829 1dbc 00a2 94be dac7 363c
000003f0: 5e1e 923f a99c 2abe 399e 79bd 312f eebd

convs.1.h_bias f4 [32]
0.049277212 0.028245796 -0.0110225165 0.08479677 -0.124557234 -0.15745378 0.00029503886 0.0059327614
-0.15686014 -0.038737573 0.24714214 0.03858657 -0.1137672 0.119121484 0.09226281 -0.052531086
-0.023649847 0.06744225 -0.0109256655 0.06333574 -0.085571826 0.32102162 0.08657034 -0.07903604
0.07364723 -0.28318682 0.10038225 0.12845106 0.08622917 0.013287535 0.12964807 0.19111846
00000000: e7d6 493d ba63 e73c c997 34bc eea9 ad3d
00000010: dd17 ffbd 903b 21be 72af 9a39 9c67 c23b
00000020: f29f 20be 4aab 1ebd d412 7d3e f40c 1e3d
00000030: c7fe e8bd f7f5 f33d 49f4 bc3d d62a 57bd
00000040: 53bd c1bc 2a1f 8a3d 9001 33bc 2bb6 813d
00000050: 4840 afbd f25c a43e ca4b b13d a6dd a1bd
00000060: 5cd4 963d ddfd 90be 3695 cd3d ad88 033e
00000070: eb98 b03d f6b3 593c 77c2 043e 8fb4 433e

convs.1.loop_weight f4 [32, 32]
0.14121518 -0.55946195 0.1852031 0.22271368 0.016151581 0.8306573 -0.29989487 0.07679405
0.50810456 0.5456228 0.6274088 -0.2835887 -0.172705 -0.34175092 -0.013486346 0.2695659
0.121178545 -0.09034272 0.5388782 0.12946509 0.00024689385 -0.56480485 -0.07181956 0.16862205
0.046446692 0.42033216 0.37806743 -0.3534188 -0.0104402015 0.0002677536 -0.061408676 0.296468
0.020072334 -0.27029842 0.110384755 -0.18043508 0.4220202 -0.074199446 0.23142241 0.22361846
-0.20947948 0.050104488 -0.23232573 0.2548704 0.088082574 0.05081919 0.04854221 -0.15371029
-0.21470469 0.20794858 0.18205716 -0.025082175 0.4182806 -0.3912756 -0.36588225 -0.06881873
0.44896668 -0.3166215 -0.46739686 -0.3177855 -0.42025647 -0.33916208 0.40665913 -0.19847889
-0.44583964 0.045763165 -0.019209651 -0.31496462 -0.24741335 0.6108715 0.015897365 0.26523605
-0.18698816 -0.21078831 -0.34872398 -0.49372354 0.51786685 0.37662882 0.31635433 -0.19046973
0.3821691 0.28446797 -0.3093819 0.14923783 0.18009277 0.05079457 -0.41126314 0.52707213
-0.22299848 0.36439726 -0.10271031 -0.6403919 -0.37795734 0.13674222 -0.40709496 0.28739533
-0.016634537 0.18849485 -0.23389214 -0.21516994 -0.10094971 -0.48111954 0.16122653 -0.07875858
-0.13852401 -0.52338755 -0.3932384 -0.38622704 -0.1219981 0.2448789 -0.4661359 0.22118022
-0.020194935 -0.27540615 -0.77402514 0.29237193 -0.44519502 0.42280984 0.054372158 0.29384094
-0.50921416 0.5071175 -0.3800311 -0.3511032 0.20848416 0.18372102 -0.45544514 -0.11989753
-0.36931503 -0.46922246 0.2697947 0.27976474 0.1331036 0.29112694 -0.12612946 0.6527499
0.1207527 0.4694382 0.54805017 0.07242008 0.29590347 0.15608568 0.23376274 0.3020084
0.15682578 -0.28164154 0.67137176 -0.00536581 0.69202465 -0.456389 -0.3970819 0.2941967
0.18268298 0.63517636 0.251381 0.2315945 0.3718443 -0.34600097 0.16762255 0.39234093
0.31246755 0.32694954 -0.34635842 0.339091 0.59905946 -0.32129422 -0.059724912 -0.15179777
-0.23745495 -0.04425715 0.49566707 -0.06905621 -0.5575789 0.48195 0.34637973 -0.15116046
0.30224383 0.27218974 -0.14726087 -0.25841835 0.09589807 -0.02072206 -0.16788724 -0.19247283
-0.17308538 0.10008707 -0.1898773 -0.27360308 0.34052223 0.23498455 0.44798148 0.62373185
-0.07932816 0.07475545 0.4236334 -0.42350146 -0.25738811 0.004072736 -0.037465286 0.06669929
0.37256426 -0.11738719 -0.03453082 0.35284814 -0.18687522 -0.48417923 -0.43924302 0.35901454
-0.35906386 -0.23654369 0.34938422 0.042109363 0.41792795 -0.15731306 0.14379917 0.037331432
-0.08143689 0.4538097 0.41531554 -0.21816672 0.25388947 0.028532255 -0.095123746 -0.47386616
0.17511207 0.31019306 -0.49867862 -0.5282807 -0.65892565 -0.00106366 -0.28334957 -0.1626975
0.5106836 -0.024887498 -0.7292358 -0.009283537 -0.247381 -0.3401921 0.10172315 0.36538428
-0.27840593 0.50896096 0.30081642 -0.21549733 0.2069908 0.3868559 -0.30800414 -0.38163832
-0.3260945 0.23553722 0.13855894 0.39883342 -0.18643725 0.15281683 -0.11821796 -0.45959485
00000000: b69a 103e e638 0fbf e2a5 3d3e 0e0f 643e
00000010: 5250 843c f5a5 543f d28b 99be 3346 9d3d
00000020: 2413 023f f0ad 0b3f dd9d 203f 8a32 91be
00000030: 94d9 30be faf9 aebe d6f5 5cbc 8b04 8a3e
00000040: 752c f83d 9b05 b9bd ecf3 093f 7f92 043e
00000050: 8871 8139 0d97 10bf 2216 93bd 42ab 2c3e
00000060: e33e 3e3d c735 d73e 0e92 c13e 4ff3 b4be
00000070: 610d 2bbc 4861 8c39 aa87 7bbd a7ca 973e
00000080: bc6e a43c 8e64 8abe 6711 e23d f9c3 38be
00000090: 0813 d83e e1f5 97bd fff9 6c3e 3dfc 643e
000000a0: ca81 56be 5d3a 4d3d cce6 6dbe 607e 823e
000000b0: a364 b43d c827 503d 32d4 463d 3b66 1dbe
000000c0: 8cdb 5bbe 79f0 543e 316d 3a3e 2279 cdbc
000000d0: e028 d63e 4755 c8be eb54 bbbe d6f0 8cbd
000000e0: f6de e53e 371c a2be a44e efbe c8b4 a2be
000000f0: db2b d7be a7a6 adbe a035 d03e 0d3e 4bbe
00000100: 1845 e4be 2872 3b3d 8f5d 9dbc 0b43 a1be
00000110: ed59 7dbe 1362 1c3f 313b 823c 05cd 873e
00000120: d379 3fbe e4d8 57be f38b b2be 55c9 fcbe
00000130: ec92 043f 7ed5 c03e 32f9 a13e 7f0a 43be
00000140: abab c33e c9a5 913e 4e67 9ebe cdd1 183e
00000150: 3d6a 383e f80d 503d 1591 d2be 33ee 063f
00000160: b759 64be 4792 ba3e c859 d2bd b9f0 23bf
00000170: a083 c1be 2706 0c3e c06e d0be 7b25 933e
00000180: 2745 88bc cb04 413e 6c81 6fbe 8255 5cbe
00000190: b9be cebd 4d55 f6be 9118 253e 2e4c a1bd
000001a0: 3dd9 0dbe bafc 05bf 8b56 c9be 8dbf c5be
000001b0: 24da f9bd 89c1 7a3e 5da9 eebe 117d 623e
000001c0: d96f a5bc 0902 8dbe 8326 46bf c6b1 953e
000001d0: 9af0 e3be 887a d83e 57b5 5e3d 5272 963e
000001e0: dc5b 02bf 74d2 013f 7093 c2be ccc3 b3be
000001f0: df7c 553e 5d21 3c3e 1b30 e9be d68c f5bd
00000200: dc16 bdbe ed3d f0be 8822 8a3e 533d 8f3e
00000210: 4f4c 083e 970e 953e 1528 01be 9e1a 273f
00000220: 314d f73d 345a f03e 044d 0c3f fb50 943d
00000230: a980 973e edd4 1f3e 805f 6f3e d8a0 9a3e
00000240: f096 203e 5233 90be 05df 2b3f add3 afbb
00000250: 8728 313f d2ab e9be 524e cbbe f3a0 963e
00000260: 3f11 3b3e eb9a 223f 03b5 803e 1c27 6d3e
00000270: 6062 be3e 0a27 b1be 3fa5 2b3e e9e0 c83e
00000280: bffb 9f3e ee65 a73e e455 b1be 569d ad3e
00000290: f65b 193f ad80 a4be 1ca2 74bd e070 1bbe
000002a0: 6427 73be fc46 35bd 13c8 fd3e 586d 8dbd
000002b0: 7ebd 0ebf 27c2 f63e af58 b13e cfc9 1abe
000002c0: b4bf 9a3e 745c 8b3e 8ecb 16be 694f 84be
000002d0: 3566 c43d 4fc1 a9bc a2ea 2bbe 9917 45be
000002e0: 4b3d 31be 73fa cc3d 326f 42be b415 8cbe
000002f0: ee58 ae3e ca9f 703e d45d e53e e4ac 1f3f
00000300: cd76 a2bd 6319 993d 7ae6 d83e 2fd5 d8be
00000310: 60c8 83be 9674 853b 3375 19bd a399 883d
00000320: bec0 be3e b268 f0bd 3070 0dbd 83a8 b43e
00000330: 385c 3fbe 57e6 f7be 76e4 e0be c1d0 b73e
00000340: 38d7 b7be 8238 72be 7de2 b23e de7a 2c3d
00000350: a7fa d53e ad16 21be 1740 133e d8e8 183d
00000360: 62c8 a6bd bf59 e83e 3da4 d43e 1967 5fbe
00000370: cdfd 813e 7abc e93c 3dd0 c2bd 969e f2be
00000380: 9450 333e a0d1 9e3e ce52 ffbe 673d 07bf
00000390: 5aaf 28bf 826a 8bba 3213 91be 2c9a 26be
000003a0: 29bc 023f dee0 cbbc 33af 3abf fa19 18bc
000003b0: 7251 7dbe a92d aebe 3a54 d03d a613 bb3e
000003c0: 398b 8ebe 444b 023f 9c04 9a3e 55ab 5cbe
000003d0: 65f5 533e fa11 c63e b8b2 9dbe 1966 c3be
000003e0: dcf5 a6be ab30 713e 65e2 0d3e e533 cc3e
000003f0: 68e9 3ebe 047c 1c3e 421c f2bd 0450 ebbe

convs.1.linear_r.W f4 [3, 32, 32]
-0.064857036 -0.14043735 0.06466455 0.21083273 0.054023623 0.24965155 -0.0943464 0.103792846
-0.14059778 0.3731105 -0.0064616506 -0.0649719 0.09145875 -0.26446506 -0.2789267 -0.0049378052
0.40488818 0.17022377 -0.05874359 0.027569775 -0.047832172 -0.032135405 0.062807865 -0.12776451
0.01616483 0.2139538 -0.110188834 0.10291356 -0.12412283 0.051950116 -0.42716974 -0.02037816
-0.19085616 0.13604453 0.08008079 -0.011334067 0.09213568 -0.17649661 0.09161018 -0.06665427
0.29562542 -0.11999396 -0.033320952 -0.03293451 0.013791538 0.15080489 -0.073571585 -0.14336623
0.098785296 0.08893997 0.0174904 -0.056618117 0.09547841 0.21198758 0.15933818 -0.14641523
-0.024998004 -0.016072331 -0.03827564 -0.08565638 -0.06607298 0.19099522 -0.178776 0.034179308
0.044042956 0.018771145 0.034382727 0.13554697 -0.054836374 0.40534192 -0.033484194 -0.23558553
0.027265446 -0.054553907 0.18481866 -0.35461646 0.09096815 0.09472089 0.41473955 0.12368004
0.43481377 -0.1327656 -0.098669186 -0.2301533 -0.49045566 0.019808516 0.18379414 -0.15985245
0.15013693 -0.15622264 -0.037600778 -0.13855071 -0.23643368 0.0045789285 -0.10723869 0.24730273
-0.11852146 -0.10633341 0.16096258 -0.022993108 -0.12681797 0.20247722 0.20809855 -0.031451106
-0.053463977 0.24859345 0.1839309 -0.16590373 0.08705925 -0.1725257 0.0019016592 -0.1166622
0.31444144 0.16481191 0.017299451 -0.07232634 -0.122810945 -0.051433872 -0.124392755 -0.086249836
0.07679219 0.11222753 -0.22458084 0.16185154 0.07823337 -0.14084326 -0.09363126 0.16452165
-0.047273014 -0.097217284 0.11609049 -0.043627393 0.42971268 0.15046878 0.10374255 -0.1603122
0.13900433 0.17073888 0.049413387 -0.2383248 -0.07804871 -0.01507392 -0.13511768 0.068471685
0.3761844 -0.15673201 -0.013426528 -0.1654231 -0.07855315 0.17260952 0.045170587 0.052535318
0.19602315 0.08181905 -0.17955573 -0.15581596 -0.18216915 -0.019057848 -0.2048874 0.08171484
0.18565531 -0.18964405 0.09995171 -0.00014879608 -0.03726501 0.19674334 0.2036825 -0.1693305
0.013411963 0.4179457 -0.059744284 -0.05182472 0.036487777 -0.13280188 -0.00036989004 0.14054954
0.022975056 0.097189374 0.090679765 0.12915356 0.2401934 -0.21454369 -0.02039092 -0.06646798
0.0009027749 -0.058282405 -0.028320974 -0.07047434 0.016487246 -0.08445122 0.10153752 -0.0280745
-0.09375556 0.028076783 -0.14366862 -0.13282153 0.04194678 -0.108114414 -0.13332541 0.01972741
0.13421951 -0.27270755 0.016332263 0.04523056 0.09699307 -0.045842588 0.12191805 0.13079561
0.023782397 0.0492788 0.011639903 0.07682711 -0.14538817 0.056079797 0.120256685 -0.21694233
-0.024227085 -0.15121199 0.18544568 -0.18845026 0.073609665 0.21637164 0.018925335 0.0249139
0.63883114 -0.016750123 0.28214583 -0.033602312 0.005044356 0.10745454 0.066840485 0.116504684
-0.090052575 -0.19514938 -0.036903694 0.17527713 0.2597336 0.15770023 -0.21650507 0.17938149
-0.11132724 -0.36577892 -0.15887904 0.10320893 0.12346276 0.06989854 0.12000745 -0.2008544
-0.07131171 0.33115208 -0.12934284 0.35906783 0.08887659 0.14422502 -0.060539257 0.1270204
00000000: c4d3 84bd cfce 0fbe d96e 843d 89e4 573e
00000010: e047 5d3d a8a4 7f3e af38 c1bd 5891 d43d
00000020: ddf8 0fbe 5708 bf3e 41bc d3bb fd0f 85bd
00000030: ba4e bb3d f767 87be 7bcf 8ebe 50cd a1bb
00000040: 814d cf3e 244f 2e3e 1e9d 70bd 02da e13c
00000050: abeb 43bd 6aa0 03bd 69a1 803d b3d4 02be
00000060: 1b6c 843c b416 5b3e afaa e1bd 58c4 d23d
00000070: 1c34 febd a5c9 543d feb5 dabe 19f0 a6bc
00000080: cc6f 43be 424f 0b3e 6601 a43d 86b2 39bc
00000090: a2b1 bc3d 87bb 34be 1e9e bb3d 0982 88bd
000000a0: 375c 973e 65bf f5bd 8d7b 08bd 56e6 06bd
000000b0: e7f5 613c 996c 1a3e b3ac 96bd 99ce 12be
000000c0: f24f ca3d 2926 b63d 0748 8f3c 66e8 67bd
000000d0: 2f8a c33d 4613 593e 8c29 233e e0ed 15be
000000e0: 9dc8 ccbc 1faa 83bc ebc6 1cbd 9d6c afbd
000000f0: 4551 87bd 4094 433e 0e11 37be 9aff 0b3d
00000100: 6366 343d f2c5 993c e7d4 0c3d d3cc 0a3e
00000110: 1b9c 60bd fa88 cf3e b926 09bd 553d 71be
00000120: c95b df3c eb73 5fbd 1a41 3d3e 4a90 b5be
00000130: 824d ba3d 07fd c13d be58 d43e f64b fd3d
00000140: e99f de3e b5f3 07be 1213 cabd 4fad 6bbe
00000150: 011d fbbe 7845 a23c 8834 3c3e 5cb0 23be
00000160: 7fbd 193e d4f8 1fbe 4603 1abd 3de0 0dbe
00000170: ac1b 72be d60a 963b f59f dbbd ed3c 7d3e
00000180: 61bb f2bd 55c5 d9bd 60d3 243e 0b5c bcbc
00000190: 92dc 01be 3056 4f3e c917 553e e0d2 00bd
000001a0: 0bfd 5abd 488f 7e3e 6258 3c3e abe2 29be
000001b0: 1f4c b23d 94aa 30be 1841 f93a 97ec eebd
000001c0: 78fe a03e 74c4 283e 94b7 8d3c d51f 94bd
000001d0: 4e84 fbbd 53ac 52bd a1c1 febd c1a3 b0bd
000001e0: 3945 9d3d 8cd7 e53d 85f8 65be 69bc 253e
000001f0: d138 a03d 3739 10be bfc1 bfbd 5d78 283e
00000200: 59a1 41bd db19 c7bd dac0 ed3d a3b2 32bd
00000210: 4d03 dc3e 7d14 1a3e f976 d43d e228 24be
00000220: 2757 0e3e 2cd6 2e3e b165 4a3d 6b0b 74be
00000230: 01d8 9fbd 9af8 76bc 4a5c 0abe e23a 8c3d
00000240: 3e9b c03e 5b7e 20be f1fa 5bbc ac64 29be
00000250: 79e0 a0bd 8dc0 303e cb04 393d 462f 573d
00000260: 4bba 483e bf90 a73d 75dd 37be 388e 1fbe
00000270: 8d8a 3abe 341f 9cbc 01ce 51be 1c5a a73d
00000280: 6d1c 3e3e 0d32 42be 7bb3 cc3d 2506 1cb9
00000290: 32a3 18bd 1677 493e 2592 503e f964 2dbe
000002a0: dabd 5b3c fbfc d53e 6cb6 74bd 2846 54bd
000002b0: 3574 153d 37fd 07be cded c1b9 38ec 0f3e
000002c0: 2f36 bc3c 390b c73d 50b6 b93d d540 043e
000002d0: 42f5 753e 57b1 5bbe dc0a a7bc 5d20 88bd
000002e0: 33a8 6c3a 88b9 6ebd 6301 e8bc da54 90bd
000002f0: 4310 873c c3f4 acbd e7f2 cf3d 7efc e5bc
00000300: ea02 c0bd 4801 e63c de1d 13be 5e02 08be
00000310: 63d0 2b3d 176b ddbd 7586 08be 619b a13c
00000320: d770 093e 53a0 8bbe 3dcb 853c ae43 393d
00000330: 4da4 c63d 70c5 3bbd 2cb0 f93d 49ef 053e
00000340: 4dd3 c23c 91d8 493d 4bb5 3e3c 8857 9d3d
00000350: a3e0 14be eeb3 653d 2349 f63d 2126 5ebe
00000360: e177 c6bc 51d7 1abe 79e5 3d3e 1bf9 40be
00000370: aac0 963d 8790 5d3e 4e09 9b3c 3c18 cc3c
00000380: 708a 233f 8e37 89bc 6b75 903e 94a2 09bd
00000390: 204b a53b 2011 dc3d aae3 883d 029a ee3d
000003a0: 7c6d b8bd 3dd5 47be 5428 17bd d97b 333e
000003b0: cdfb 843e 2b7c 213e 81b3 5dbe c8af 373e
000003c0: 89ff e3bd 6047 bbbe 30b1 22be 345f d33d
000003d0: 0bda fc3d f726 8f3d 77c6 f53d c7ac 4dbe
000003e0: e00b 92bd c48c a93e 7372 04be bdd7 b73e
000003f0: ee04 b63d b9af 133e 03f8 77bd a311 023e

convs.2.h_bias f4 [32]
0.018167442 -0.029851496 -0.134254 0.115845814 -0.017911227 -0.0151907895 -0.03438897 -0.12306723
0.050917845 -0.015953783 -0.05340349 -0.14953628 -0.055896387 -0.21266724 -0.0084787905 -0.022511955
-0.058673374 -0.025665877 -0.0756316 0.06579004 -0.04953931 0.091467135 -0.11138192 0.09911393
0.006946 -0.016591994 -0.059948042 0.16851734 0.10826645 -0.14886507 -0.054440126 0.07053823
00000000: e3d3 943c 208b f4bc e179 09be 9240 ed3d
00000010: 91ba 92bc cae2 78bc 73db 0cbd ac0a fcbd
00000020: 3b8f 503d 82b1 82bc 9ebd 5abd 0a20 19be
00000030: 9cf3 64bd 71c5 59be a0ea 0abc fe6a b8bc
00000040: 7e53 70bd 3f41 d2bc bee4 9abd eebc 863d
00000050: bbe9 4abd 1f53 bb3d 341c e4bd 3efc ca3d
00000060: 459b e33b efeb 87bc 148c 75bd cf8f 2c3e
00000070: cdba dd3d 1670 18be 9cfc 5ebd 5976 903d

convs.2.loop_weight f4 [32, 32]
-0.15649326 0.2992009 -0.16226391 -0.3589885 0.37598023 0.23943672 0.6091002 -0.04329941
0.4017686 -0.34719265 -0.18540202 -0.12881829 -0.015379736 -0.1390227 -0.38490614 0.16924271
-0.14178567 -0.06593592 -0.15306406 0.32168108 -0.25152937 0.21900624 -0.16586892 -0.15685919
0.51254314 0.0074589145 -0.3729704 0.3568065 0.3061167 -0.37475505 -0.2665931 0.4725666
-0.31660607 0.3703393 0.03997218 -0.40334642 -0.5806588 -0.22089502 0.5436268 0.10999613
0.54276866 0.28158477 0.24706891 -0.08916847 -0.49272662 -0.44092366 -0.3281308 0.7238802
-0.037234325 -0.19405748 -0.2210369 0.17481565 -0.18784875 -0.022374533 -0.2711647 -0.22639021
-0.39454293 0.30061188 0.36077332 -0.076077096 0.56410366 -0.30947 -0.14440252 0.32345647
-0.4726111 0.046080504 -0.31382862 0.3787143 0.42807356 0.72596794 0.008118003 0.2556663
-0.56581277 0.346757 -0.16554497 -0.04029782 0.27355444 0.40162647 -0.47510278 -0.29523697
0.13100053 0.049631406 0.18655577 -0.077966765 0.14738105 -0.31263855 0.85736096 -0.13895588
0.7760103 0.14246061 0.6105692 0.46581835 -0.49657264 0.63721395 -0.17045872 -0.2981453
0.29435965 0.009967998 0.07066423 -0.19195943 0.53743106 -0.49017894 -0.15673403 -0.046116646
-0.46596685 0.35810652 -0.252297 0.30882213 0.092067555 0.099183165 0.0040876693 -0.7456185
-0.01649739 0.58015686 0.06135436 0.5039433 0.17390868 0.083510324 -0.17198451 0.039652854
-0.014601118 0.20848377 0.1412287 0.25454655 -0.5748596 -0.22723673 0.006378912 0.14382267
-0.033928346 0.36357746 0.0025871065 0.27951103 -0.27217883 0.3025748 0.23283455 0.1896537
-0.1031588 0.44906884 0.16542774 0.14598048 -0.18149577 0.107460506 -0.10150384 -0.25416726
0.2220728 0.36316895 0.35070047 -0.16548556 0.25133917 -0.052415494 0.30574158 -0.4374559
-0.091052726 -0.4043425 0.3588758 0.34967312 0.3939412 -0.27868947 -0.17731157 0.0109156305
-0.012269389 0.968696 0.1704219 -0.02351107 -0.16138096 0.13294765 -0.39452964 -0.5430055
-0.26427686 -0.07421585 0.15354703 0.38772902 0.18923384 0.675906 0.41972342 0.4688946
-0.448572 0.8192176 0.34156826 0.2753443 0.21370259 0.37024447 0.021172576 -0.32169053
-0.0645586 -0.106565416 -0.16173589 -0.4106738 0.37127966 -0.27460688 0.48695144 -0.7677611
0.38815558 -0.019446054 -0.4246288 0.27081037 -0.22851078 -0.3584663 -0.012976889 -0.09796937
-0.02818763 0.35399 -0.43531638 0.32919222 -0.17124383 0.15034366 0.3309807 -0.391705
-0.18549532 -0.054763105 0.16511863 0.18914051 0.3973778 0.3657 -0.53737885 -0.3283137
0.034534317 -0.0381399 -0.18012707 0.28163913 0.07613222 -0.39320707 -0.2216291 -0.03416102
-0.27447644 -0.074988425 0.3268312 -0.24954627 -0.044140454 -0.2979412 0.33633015 0.23881184
-0.115516715 -0.07058736 -0.65095866 0.0065433756 0.76183325 0.7111291 -1.2735841 0.4211009
-0.26918066 -0.6772692 0.42347294 -0.12209033 -0.39995012 -0.48515323 0.46928576 0.037827503
0.77962 -0.449151 0.24079975 0.0718854 0.0046669235 0.49484256 -0.18753646 -0.37074584
00000000: c53f 20be dc30 993e 8328 26be 57cd b7be
00000010: 7b80 c03e e62e 753e feed 1b3f b95a 31bd
00000020: 9db4 cd3e 3cc3 b1be 07da 3dbe f1e8 03be
00000030: 4afb 7bbc f75b 0ebe 6b12 c5be f64d 2d3e
00000040: 4330 11be 6909 87bd d3bc 1cbe 62b3 a43e
00000050: 75c8 80be 2c43 603e 8bd9 29be b29f 20be
00000060: 0736 033f e969 f43b faf5 bebe 57af b63e
00000070: 54bb 9c3e e5df bfbe e47e 88be 40f4 f13e
00000080: 311a a2be 1d9d bd3e deb9 233d 6c83 cebe
00000090: 0ea6 14bf 4e32 62be 202b 0b3f a745 e13d
000000a0: e3f2 0a3f e12b 903e a2ff 7c3e f59d b6bd
000000b0: aa46 fcbe bfc0 e1be c300 a8be 3650 393f
000000c0: 0583 18bd 01b7 46be 7f57 62be e002 333e
000000d0: 6c5b 40be cc4a b7bc 19d6 8abe d6d2 67be
000000e0: 8801 cabe cde9 993e 48b7 b83e 4fce 9bbd
000000f0: 1969 103f da72 9ebe 41de 13be 169c a53e
00000100: 15fa f1be e9be 3c3d 25ae a0be d7e6 c13e
00000110: 752c db3e 09d9 393f 5f01 053c b1e6 823e
00000120: 1bd9 10bf 228a b13e 9f84 29be 540f 25bd
00000130: 540f 8c3e fca1 cd3e ac40 f3be 4d29 97be
00000140: 0125 063e 4d4a 4b3d 7a08 3f3e 0aad 9fbd
00000150: 0feb 163e 2912 a0be 027c 5b3f 734a 0ebe
00000160: 9ca8 463f 32e1 113e 434e 1c3f be7f ee3e
00000170: c53e febe 7420 233f bb8c 2ebe 80a6 98be
00000180: 4fb6 963e d050 233c 68b8 903d 0391 44be
00000190: 1595 093f bcf8 fabe e37e 20be cfe4 3cbd
000001a0: 3593 eebe bd59 b73e 132d 81be ef1d 9e3e
000001b0: ea8d bc3d 8b20 cb3d dbf1 853b dbe0 3ebf
000001c0: 8925 87bc 2985 143f b64e 7b3d 6e02 013f
000001d0: 1e15 323e 7607 ab3d b51c 30be 086b 223d
000001e0: 8739 6fbc c57c 553e 429e 103e ed53 823e
000001f0: 002a 13bf bfb0 68be 3106 d13b 4046 133e
00000200: 73f8 0abd d326 ba3e 728c 293b 121c 8f3e
00000210: 065b 8bbe 16eb 9a3e 2e6c 6e3e 9434 423e
00000220: ec44 d3bd 5aec e53e e465 293e e87b 153e
00000230: 07da 39be 4114 dc3d 3fe1 cfbd 3622 82be
00000240: 0d67 633e 48f1 b93e 038f b33e 0c75 29be
00000250: 87af 803e a1b1 56bd 298a 9c3e 38fa dfbe
00000260: da79 babd fb05 cfbe 92be b73e 5b08 b33e
00000270: a9b2 c93e 63b0 8ebe 2a91 35be 79d7 323c
00000280: 8c05 49bc 76fc 773f 1483 2e3e 4a9a c0bc
00000290: 0d41 25be 6e23 083e caff c9be 6902 0bbf
000002a0: 4c4f 87be 7bfe 97bd 6f3b 1d3e 6b84 c63e
000002b0: 84c6 413e 2d08 2d3f fde5 d63e f412 f03e
000002c0: 3bab e5be 3fb8 513f 09e2 ae3e eef9 8c3e
000002d0: dad4 5a3e af90 bd3e 1c72 ad3c 9fb4 a4be
000002e0: 4d37 84bd f83e dabd 189e 25be d643 d2be
000002f0: 5e18 be3e 4699 8cbe b351 f93e fe8b 44bf
00000300: 54bc c63e 554d 9fbc f268 d9be a8a7 8a3e
00000310: bbfe 69be e588 b7be 049d 54bc 2aa4 c8bd
00000320: bfe9 e6bc 2d3e b53e cae1 debe e28b a83e
00000330: 8b5a 2fbe b0f3 193e 4d76 a93e 8f8d c8be
00000340: 7cf2 3dbe 474f 60bd dc14 293e 0dae 413e
00000350: 1a75 cb3e 083d bb3e a991 09bf bc18 a8be
00000360: db73 0d3d 9538 1cbd 3b73 38be 0133 903e
00000370: 36eb 9b3d 7052 c9be bdf2 62be 6dec 0bbd
00000380: 2d88 8cbe 8893 99bd 6b56 a73e 0f89 7fbe
00000390: 9fcc 34bd c08b 98be 7733 ac3e 178b 743e
000003a0: 0794 ecbd 1b90 90bd 3aa5 26bf d069 d63b
000003b0: 8107 433f 8f0c 363f ce04 a3bf 8a9a d73e
000003c0: 0cd2 89be 8461 2dbf 72d1 d83e 7f0a fabd
000003d0: 43c6 ccbe 0166 f8be 3946 f03e 03f1 1a3d
000003e0: 2d95 473f 1ff7 e5be 3694 763e a738 933d
000003f0: feec 983b 015c fd3e 8f09 40be 66d2 bdbe

convs.2.linear_r.W f4 [3, 32, 32]
-0.06600188 -0.023448585 -0.018747816 0.022482172 -0.11315865 -0.19159904 0.20472297 0.006829851
-0.21315388 0.16110949 -0.0484826 0.15357473 0.02183425 0.1385689 -0.10791726 0.09284916
0.016976314 0.042820867 -0.005286206 -0.035131462 -0.14497614 0.15075316 0.16133717 -0.06746111
-0.0046364754 0.18799806 0.31999293 0.06318003 0.24483924 -0.1945059 -0.017702099 -0.009840656
0.031227939 -0.037864015 0.17331427 -0.13472117 0.020606738 0.123681076 -0.084831454 0.12925126
-0.077700675 0.23291732 0.07011559 -0.038188044 0.021453572 -0.06605642 0.27690133 -0.08863258
0.0658542 0.13002793 0.12305416 0.0055419705 0.1003924 0.041591693 0.02260884 -0.002592387
-0.21228129 0.088547505 0.012853845 0.049769595 -0.09174338 -0.052009773 -0.020158784 -0.20976685
0.33604273 0.24573436 0.030498696 -0.0010060546 -0.31382436 -0.2683663 -0.3191044 0.030129684
0.10303658 -0.28954345 -0.07606923 -0.114953555 0.24516876 -0.037948266 0.13739371 0.19997993
-0.05290763 0.00073685474 -0.13733457 -0.1801485 0.009504565 -0.026499432 0.10651314 -0.04209015
-0.0026896151 0.14793088 -0.03603178 -0.19825563 -0.20075756 0.091060504 0.0674181 0.017212262
-0.033309948 -0.030325871 -0.16612697 0.1798961 0.1453228 -0.103588894 0.042283714 0.0007789246
-0.15170564 -0.028633187 -0.10638143 0.120664485 -0.07643389 0.041774843 0.1559192 -0.20168954
-0.26761135 -0.046857048 0.061098203 0.09219427 0.09936029 0.25304803 -0.15238075 -0.040398862
-0.04976599 0.16972747 -0.08934061 -0.10704749 0.08500351 0.038177345 0.1309661 -0.04187969
-0.57138723 0.031588636 -0.24418806 -0.03371206 0.33669114 0.23512036 0.19242574 -0.043735433
0.16839963 0.30922714 0.03287388 -0.020743769 0.35975882 -0.105080195 -0.19295429 -0.060775172
-0.056530043 -0.14317137 -0.12676467 -0.022866007 0.1274398 0.34128374 -0.10398313 -0.06736792
0.16232873 -0.036156002 -0.20750542 -0.12018913 -0.1805829 0.10757486 -0.32057524 -0.098448545
0.44841346 -0.11736494 -0.13621834 0.040899668 -0.084356084 -0.41615093 -0.23255782 0.30838946
-0.16383718 -0.19923525 -0.21214701 -0.0103978105 -0.25549984 -0.037222866 0.15728202 -0.2733366
-0.015220337 -0.117857926 -0.4163913 -0.1536776 -0.043931052 -0.036282826 0.105248906 0.3388154
0.02114537 -0.05325873 -0.023647865 0.108198315 -0.00060225977 0.103044294 0.26095122 0.05487286
0.2665322 0.3967353 0.04374604 -0.1962848 -0.23850214 -0.3091985 -0.20667723 -0.31978998
0.110474534 -0.092134565 -0.018896058 0.07334794 -0.12576997 -0.11130627 0.22839968 0.10576244
-0.10184141 0.18052357 0.08521581 -0.27959374 -0.0781076 -0.1426976 -0.107914075 -0.08763351
-0.06600593 0.19318184 -0.082664415 -0.1906398 -0.24109298 -0.030086542 0.26530075 -0.19729231
-0.25647968 0.10042578 -0.034552466 -0.21724227 0.3316219 0.028548265 0.22317322 -0.12490519
-0.12820132 -0.0036435653 -0.06378659 -0.23135905 0.17892939 -0.017892629 0.039963786 -0.14434172
-0.11657411 0.090170465 -0.18096118 0.22528487 0.047252953 0.3885956 -0.09813858 0.19375244
0.1715307 -0.46886504 0.020874491 -0.18613285 0.10720868 -0.16124316 -0.010280599 0.07983051
00000000: fe2b 87bd 3f17 c0bc 0595 99bc 882c b83c
00000010: b9bf e7bd 8a32 44be e6a2 513e f1cc df3b
00000020: 0345 5abe e3f9 243e b195 46bd b242 1d3e
00000030: bedd b23c 01e5 0d3e b903 ddbd b327 be3d
00000040: e911 8b3c ef64 2f3d e937 adbb 02e6 0fbd
00000050: a074 14be 095f 1a3e 9235 253e 0d29 8abd
00000060: 93ed 97bb 9082 403e 1dd6 a33e 8864 813d
00000070: 23b7 7a3e 8e2c 47be fe03 91bc b43a 21bc
00000080: bcd1 ff3c 4c17 1bbd 4c79 313e 59f4 09be
00000090: 76cf a83c 814c fd3d 1dbc adbd 715a 043e
000000a0: 8821 9fbd e181 6e3e c398 8f3d 116b 1cbd
000000b0: 67bf af3c 9748 87bd 03c6 8d3e 0085 b5bd
000000c0: 91de 863d 0b26 053e d203 fc3d 6b99 b53b
000000d0: 889a cd3d 0d5c 2a3d 2d36 b93c 09e5 29bb
000000e0: 4460 59be 6558 b53d ef98 523c 34db 4b3d
000000f0: f4e3 bbbd 3308 55bd 0924 a5bc 1fcd 56be
00000100: cb0d ac3e caa1 7b3e 67d8 f93c 97dd 83ba
00000110: 96ad a0be 4f67 89be a761 a3be 87d2 f63c
00000120: d804 d33d 0a3f 94be 2fca 9bbd c56c ebbd
00000130: 850d 7b3e a46f 1bbd f0b0 0c3e 8ac7 4c3e
00000140: acb5 58bd 7c29 413a 6fa1 0cbe d978 38be
00000150: 09b9 1b3c 5615 d9bc 9023 da3d b966 2cbd
00000160: 4144 30bb 317b 173e 0f96 13bd 8603 4bbe
00000170: 6493 4dbe ee7d ba3d 8012 8a3d bb00 8d3c
00000180: 0370 08bd f66d f8bc 301d 2abe af36 383e
00000190: 80cf 143e 6a26 d4bd b031 2d3d bf30 4c3a
000001a0: b958 1bbe 2590 eabc 82de d9bd f11e f73d
000001b0: 5f89 9cbd 191c 2b3d 48a9 1f3e b487 4ebe
000001c0: 5b04 89be 2ded 3fbd 1c42 7a3d 59d0 bc3d
000001d0: 687d cb3d 838f 813e b309 1cbe 4779 25bd
000001e0: 6cd7 4bbd 0acd 2d3e 36f8 b6bd b73b dbbd
000001f0: 5216 ae3d d95f 1c3d fa1b 063e 0a8a 2bbd
00000200: 6f46 12bf 1663 013d 6f0c 7abe a815 0abd
00000210: c862 ac3e 64c3 703e 410b 453e ed23 33bd
00000220: f470 2c3e 0553 9e3e c3a6 063d d6ee a9bc
00000230: 4f32 b83e 4934 d7bd cf95 45be 63ef 78bd
00000240: 0c8c 67bd 849b 12be 99ce 01be 7e51 bbbc
00000250: 947f 023e bebc ae3e 1bf5 d4bd 31f8 89bd
00000260: 8139 263e 5118 14bd 4d7c 54be b825 f6bd
00000270: b9ea 38be 3550 dc3d 7022 a4be 649f c9bd
00000280: 7396 e53e 085d f0bd d27c 0bbe 6986 273d
00000290: e2c2 acbd bc11 d5be a323 6ebe 39e5 9d3e
000002a0: efc4 27be 5304 4cbe 113d 59be 945b 2abc
000002b0: e0d0 82be 0177 18bd 8a0e 213e c6f2 8bbe
000002c0: b85e 79bc 7f5f f1bd 3e31 d5be a95d 1dbe
000002d0: 0cf1 33bd 4d9d 14bd bd8c d73d 3679 ad3e
000002e0: 0e39 ad3c d325 5abd 2bb9 c1bc 1497 dd3d
000002f0: f8e0 1dba e308 d33d 669b 853e 5dc2 603d
00000300: e976 883e e420 cb3e 0c2f 333d e2fe 48be
00000310: e839 74be 444f 9ebe 32a3 53be 83bb a3be
00000320: 7940 e23d 0cb1 bcbd e8cb 9abc 7237 963d
00000330: d8c9 00be 8bf4 e3bd 9be1 693e fa99 d83d
00000340: 3b92 d0bd 2cdb 383e a085 ae3d e926 8fbe
00000350: e1f6 9fbd 521f 12be 0e02 ddbd 3379 b3bd
00000360: 1e2e 87bd 76d1 453e f64b a9bd 1437 43be
00000370: 14e1 76be 0d78 f6bc 80d5 873e ff06 4abe
00000380: 4e51 83be 08ac cd3d e386 0dbd c274 5ebe
00000390: 58ca a93e 0dde e93c 8587 643e 4bce ffbd
000003a0: 3547 03be e2c8 6ebb 8ba2 82bd 63e9 6cbe
000003b0: 4439 373e 9093 92bc 11b1 233d 51ce 13be
000003c0: 68be eebd 4bab b83d e34d 39be 14b1 663e
000003d0: 508c 413d 01f6 c63e e1fc c8bd 0a67 463e
000003e0: bea5 2f3e 140f f0be fb00 ab3c 9c99 3ebe
000003f0: 3990 db3d ed1c 25be f56f 28bc 2e7e a33d

convs.3.h_bias f4 [32]
0.16515163 0.18635775 -0.028065624 -0.020577455 -0.27268428 0.04858077 -0.012997404 0.17293826
-0.07648879 -0.056983687 0.28926453 -0.101913504 0.0510404 0.00038706194 0.00819975 0.08946284
0.22739802 0.22284642 0.008705101 0.23600814 0.1862044 0.20833817 -0.019053787 -0.032374695
0.020022657 -0.10275859 0.0699391 -0.23928574 0.020361368 -0.12396483 0.033590507 0.14714122
00000000: 821d 293e 91d4 3e3e e1e9 e5bc 0d92 a8bc
00000010: 469d 8bbe a1fc 463d 10f3 54bc ba16 313e
00000020: 28a6 9cbd ba67 69bd 7b1a 943e 07b8 d0bd
00000030: bd0f 513d 93ee ca39 3f58 063c 4b38 b73d
00000040: 07db 683e da31 643e d79f 0e3c 1eac 713e
00000050: 5eac 3e3e 9a56 553e b016 9cbc 549b 04bd
00000060: 8e06 a43c 1873 d2bd 3b3c 8f3d 5207 75be
00000070: e2cc a63c 46e1 fdbd 3396 093d 30ac 163e

convs.3.loop_weight f4 [32, 32]
0.03388762 0.18082204 -0.044873822 -0.33652368 -0.18431698 0.11093791 -0.26476592 0.06031489
0.51634234 0.43445197 0.32936546 0.42100084 -0.18447416 -0.1897906 0.10196319 -0.1230036
-0.23287876 0.08505627 0.3221155 0.27843392 -0.45444515 -0.27166894 0.61184436 -0.1342071
-0.31075203 -0.24128424 0.08244349 0.07621074 0.24028498 -0.35803717 0.513084 -0.26102272
-0.13159537 -0.25330493 -0.47686544 0.34521762 0.41634008 0.1638012 0.18976855 0.0050934753
0.29730403 0.15131724 -0.056264527 1.0739653 -0.54747474 -0.31853926 0.41192904 0.42446822
0.01376793 0.2824015 -0.49825877 -0.6818837 0.2672314 -0.3581746 0.6714782 0.463949
-0.25244376 0.67502725 0.16406484 -0.11356736 -0.58909035 0.1869065 0.6105198 0.58474755
-0.35741684 -0.039898243 -0.05110833 -0.2622969 -0.20010614 -0.23888238 -0.4485183 0.3009112
0.3725818 -0.20789252 -0.2212486 0.5813119 0.07733336 -0.20155832 0.117359966 0.49364835
0.33823252 -0.18119411 -0.10096622 0.27994835 0.52516 -0.24667114 0.22153386 0.13954909
0.08639107 -0.002002514 -0.22917396 -0.22737242 0.06426229 0.019912895 0.63358086 -0.156897
0.46744072 -0.71680856 0.483734 0.42922306 0.5093602 0.3915894 0.33348206 -0.11923848
-0.45207405 0.56132776 -0.46460012 -0.11153903 -0.2159867 -0.09019323 0.23857689 -0.22579718
-0.13507022 -0.1991404 0.79149216 -0.08500058 -0.03096714 -0.05179453 -0.39347747 -0.29389805
-0.3917249 -0.4633089 -0.7180456 0.12882714 0.53294927 0.16823049 -0.42009157 -0.28045782
0.10530823 0.42840528 0.020061279 0.5798091 -0.40963644 0.28409365 -0.2842671 0.38900477
-0.30776858 -0.21419443 0.025826005 -0.124149844 0.33241853 0.10875864 0.27695137 -0.06997944
-0.17235556 0.1465056 -0.07267195 0.47642648 0.40698186 0.02849097 -0.31598926 0.25860384
-0.0838115 0.05361534 -0.019726317 0.12038671 0.11753714 -0.26423526 0.11930832 0.053728316
0.1944554 0.14719765 0.0481961 0.14163019 0.2151677 0.18691158 0.19793662 -0.052684717
0.13884936 0.2401812 0.056864906 -0.7135207 -0.008418402 -0.1435273 -0.064856604 0.42995685
-0.19950202 -0.2188345 0.28781646 -0.019656204 0.1413251 -0.11162597 0.25523823 0.22824325
0.35413057 -0.50093335 -0.16480789 0.20795998 0.272805 -0.4394864 -0.29859617 0.3797197
-0.1349845 0.17641976 -0.21263148 0.6109465 0.019499183 -0.06710489 -0.145239 0.41734982
0.16422911 -0.47380692 0.09619085 -0.47732404 -0.053897668 0.01128827 -0.38508826 0.089813985
0.0836064 0.113859996 -0.0793965 -0.32727277 -0.3329819 0.1921831 0.40431303 0.41181573
0.04921084 0.2068785 0.15589944 0.47115335 0.21315499 -0.3694891 0.21698552 -0.26447096
-0.005738628 -0.32202694 -0.21954021 0.40162578 0.14041185 0.33355722 -0.22819912 0.42994222
-0.18492304 -0.23022293 0.20360218 -0.08041139 -0.070821434 0.23618513 -0.312936 -0.3759532
-0.3113424 -0.1668174 -0.12984681 -0.39702728 -0.091598235 0.055492535 0.10947275 0.2198896
-0.3818569 0.16951397 -0.15982102 0.22917089 0.4952373 -0.085407846 0.018410299 0.15909576
00000000: bfcd 0a3d 6a29 393e 9dcd 37bd d54c acbe
00000010: 97bd 3cbe 6a33 e33d 668f 87be bf0c 773d
00000020: 032f 043f 7d70 de3e 97a2 a83e 6c8d d73e
00000030: cbe6 3cbe 7858 42be 14d2 d03d 50e9 fbbd
00000040: c577 6ebe fb31 ae3d 53ec a43e e48e 8e3e
00000050: 09ad e8be 3118 8bbe d5a1 1c3f 966d 09be
00000060: e41a 9fbe 3713 77be 22d8 a83d 6014 9c3d
00000070: 440d 763e a650 b7be 7959 033f c5a4 85be
00000080: f0c0 06be 2fb1 81be b527 f4be 5dc0 b03e
00000090: 872a d53e 80bb 273e b052 423e 2be7 a63b
000000a0: 3c38 983e e8f2 1a3e a275 66bd b277 893f
000000b0: 4e27 0cbf 9417 a3be 5de8 d23e e653 d93e
000000c0: e292 613c ee96 903e c61b ffbe ee8f 2ebf
000000d0: 8ed2 883e a962 b7be ffe5 2b3f b98a ed3e
000000e0: 4f40 81be 96ce 2c3f 9d00 283e 0196 e8bd
000000f0: a0ce 16bf 6b64 3f3e 074b 1c3f 04b2 153f
00000100: 57ff b6be 576c 23bd f856 51bd c74b 86be
00000110: a0e8 4cbe 959d 74be 31a4 e5be 0811 9a3e
00000120: 0bc3 be3e c7e1 54be fe8e 62be dbd0 143f
00000130: f460 9e3d 4e65 4ebe 6c5a f03d 7abf fc3e
00000140: d02c ad3e f38a 39be 61c7 cebd 6455 8f3e
00000150: e370 063f 5c97 7cbe c6d9 623e f5e5 0e3e
00000160: cded b03d 9c3c 03bb 94ac 6abe 51d4 68be
00000170: f39b 833d 5e20 a33c 5b32 223f 9ba9 20be
00000180: 6454 ef3e c480 37bf fcab f73e 20c3 db3e
00000190: 6e65 023f 687e c83e 29be aa3e 4e33 f4bd
000001a0: 4076 e7be 2db3 0f3f 11e0 edbe 936e e4bd
000001b0: 9e2b 5dbe 3ab7 b8bd 804d 743e 6037 67be
000001c0: d94f 0abe 76eb 4bbe 3b9f 4a3f c914 aebd
000001d0: cdae fdbc 8026 54bd e175 c9be ce79 96be
000001e0: 2b90 c8be d336 edbe d6d1 37bf 43eb 033e
000001f0: 5d6f 083f 9d44 2c3e 3e16 d7be 2b98 8fbe
00000200: d7ab d73d f057 db3e 8d57 a43c 5f6e 143f
00000210: debb d1be b974 913e 758b 91be a22b c73e
00000220: d893 9dbe c955 5bbe 0f91 d33c 4642 febd
00000230: c332 aa3e dabc de3d 92cc 8d3e 6151 8fbd
00000240: fa7d 30be 9005 163e 08d5 94bd 2cee f33e
00000250: ed5f d03e e565 e93c 58c9 a1be b967 843e
00000260: 5da5 abbd c29b 5b3d 1699 a1bc 4f8d f63d
00000270: 50b7 f03d d849 87be ec57 f43d 3912 5c3d
00000280: 511f 473e fbba 163e 4669 453d 8107 113e
00000290: ec54 5c3e c065 3f3e e6af 4a3e eecb 57bd
000002a0: 872e 0e3e 0ff2 753e 2deb 683d 4ba9 36bf
000002b0: 56ed 09bc d2f8 12be 8ad3 84bd 4e23 dc3e
000002c0: 424a 4cbe 2716 60be ae5c 933e 0c06 a1bc
000002d0: 87b7 103e 289c e4bd 96ae 823e 99b8 693e
000002e0: 9a50 b53e 2b3d 00bf 66c3 28be 76f3 543e
000002f0: 19ad 8b3e 5d04 e1be 99e1 98be 9f6a c23e
00000300: 6039 0abe 62a7 343e 11bc 59be fd66 1c3f
00000310: c0bc 9f3c 4a6e 89bd 88b9 14be e0ae d53e
00000320: ad2b 283e d296 f2be b5ff c43d d163 f4be
00000330: cdc3 5cbd 70f2 383c 4a2a c5be 65f0 b73d
00000340: d539 ab3d 6e2f e93d a29a a2bd 4c90 a7be
00000350: 9b7c aabe a6cb 443e 1e02 cf3e 83d9 d23e
00000360: 4e91 493d f5d7 533e 1aa4 1f3e 033b f13e
00000370: 4d45 5a3e ad2d bdbe 7431 5e3e bd68 87be
00000380: 1a0b bcbb b7e0 a4be 26cf 60be e5a1 cd3e
00000390: 20c8 0f3e 03c8 aa3e 08ad 69be 6321 dc3e
000003a0: 775c 3dbe 8fbf 6bbe 177d 503e baae a4bd
000003b0: d40a 91bd 84da 713e 2639 a0be f07c c0be
000003c0: 4568 9fbe 2ed2 2abe 90f6 04be 2947 cbbe
000003d0: db97 bbbd 244c 633d 4033 e03d bd2a 613e
000003e0: bf82 c3be 1295 2d3e 1fa8 23be c6ab 6a3e
000003f0: be8f fd3e 4fea aebd 32d1 963c 00ea 223e

convs.3.linear_r.W f4 [3, 32, 32]
-0.18641262 -0.10854235 0.30216125 -0.20070286 0.13078795 -0.25221556 -0.1335359 -0.16058698
0.12341685 0.0980317 -0.00673557 0.17432037 0.2555442 -0.33036917 0.013276703 0.25796905
0.25461957 -0.20395577 0.13403417 0.16102697 0.26104268 -0.3252326 -0.018306106 -0.29519695
0.04669421 -0.11483953 -0.25899777 0.026143646 -0.12953441 0.3718052 0.1762973 -0.3896882
0.32340008 0.15223081 -0.1617105 -0.008840798 -0.09784057 0.48101676 0.16580676 0.024166329
-0.32460082 -0.1342088 0.13470633 -0.08250347 -0.10914331 0.29832458 0.10396891 -0.26652712
-0.30588487 0.4283521 -0.0980028 -0.06665725 -0.02448624 0.3917925 0.07140539 0.13447067
-0.04804907 -0.1839526 0.20779927 0.15364888 0.2134894 -0.38937232 0.25972486 0.18380684
-0.098441474 -0.13443351 -0.035199232 -0.16078393 -0.0834731 -0.23463689 0.078275025 -0.15132852
-0.085860126 -0.04835604 0.14103784 0.12403371 -0.22159493 -0.028571285 -0.20963144 0.40650195
0.23120745 -0.104593635 0.10701482 0.30963275 0.16615337 -0.197672 0.45738417 -0.055462237
-0.01844415 0.015820023 -0.07199982 -0.2555502 0.018183172 -0.041613042 -0.25830784 0.034396037
-0.036672376 0.091760665 0.054588996 -0.1720281 0.10979395 -0.46541396 0.14320317 -0.16855294
0.13590898 0.05847068 -0.080812 -0.11624239 -0.06123071 -0.28537014 -0.2468452 -0.19825111
0.023638142 -0.14855845 0.12306828 0.123893864 -0.016688533 -0.020796377 0.18066388 -0.09031457
0.03726132 -0.15602794 -0.0038480754 -0.22179873 0.07574853 0.08655535 -0.0457246 -0.1291277
0.30227628 0.061087266 -0.35317996 -0.07150491 0.024902739 0.3702878 0.29295656 0.12665062
-0.19047172 -0.20441559 0.15242936 -0.2564498 -0.19499497 -0.008125909 0.2406716 -0.15536517
-0.0011062721 0.2679226 -0.08103259 -0.17969048 0.07618169 -0.029431168 0.10355175 0.38951916
-0.04858898 -0.24108747 0.26437032 0.34436062 0.29622224 0.028907187 0.16944404 0.04305519
-0.11660555 -0.19928518 0.1116102 -0.16096951 0.19034925 -0.07639918 0.07550295 -0.17838308
0.023724109 0.123570904 -0.1992681 0.12954074 0.09672896 -0.124193825 -0.06019318 0.05314428
0.08422814 -0.0900353 0.101667374 0.112751536 0.1554158 0.0033321134 -0.06260082 0.0074191955
0.07698121 0.12317989 0.091785006 0.018835558 0.025006896 0.36382625 0.08055806 -0.05794334
0.16196613 0.15565994 -0.11224192 0.13548304 -0.093950815 0.20995463 0.12827027 0.020970356
-0.0712413 -0.06563511 0.04450465 -0.08178529 -0.11028055 0.1666979 -0.023183348 0.06601638
-0.41230145 -0.064677574 -0.05006896 0.0704897 -0.024261033 0.11363764 0.034279145 0.010881506
-0.0067183836 0.13765253 -0.014271584 -0.10744241 0.06622921 -0.15765832 -0.07169663 0.25976035
-0.1424871 -0.22501673 0.3932715 -0.030580858 0.21297419 -0.2480093 -0.15486331 -0.08744335
0.26212168 0.16509639 -0.047159836 0.11689661 0.0075721573 -0.2006318 -0.048819836 0.1597526
0.39818627 -0.343447 0.12199232 0.013721688 0.09779854 -0.3936416 -0.17351152 -0.14100695
-0.0854845 0.0058862725 -0.3252205 -0.06932253 -0.10083912 0.21076535 0.09707153 -0.34227285
00000000: f3e2 3ebe 744b debd e1b4 9a3e 0d85 4dbe
00000010: 47ed 053e 6622 81be a3bd 08be ea70 24be
00000020: f9c1 fc3d d8c4 c83d 0eb6 dcbb 0a81 323e
00000030: b0d6 823e 2626 a9be 8786 593c 8514 843e
00000040: 7f5d 823e c8d9 50be 4140 093e 41e4 243e
00000050: 63a7 853e e384 a6be b0f6 95bc 0e24 97be
00000060: 6e42 3f3d fd30 ebbd 5b9b 84be 332b d63c
00000070: aba4 04be 405d be3e 4887 343e 3685 c7be
00000080: b294 a53e 65e2 1b3e 7097 25be ffd8 10bc
00000090: a360 c8bd d447 f63e 3fc9 293e 77f8 c53c
000000a0: 1432 a6be 086e 09be 75f0 093e 94f7 a8bd
000000b0: 8786 dfbd 00be 983e a7ed d43d 3e76 88be
000000c0: f19c 9cbe f750 db3e b1b5 c8bd 9983 88bd
000000d0: 5e97 c8bc 0799 c83e fd3c 923d aeb2 093e
000000e0: 1acf 44bd 125e 3cbe 55c9 543e 2256 1d3e
000000f0: f79c 5a3e cf5b c7be a8fa 843e dc37 3c3e
00000100: af9b c9bd f0a8 09be 122d 10bd 8ba4 24be
00000110: f2f3 aabd a744 70be a84e a03d ddf5 1abe
00000120: 6fd7 afbd fc10 46bd 396c 103e 6305 fe3d
00000130: c8e9 62be 540e eabc a0a9 56be 0621 d03e
00000140: a5c1 6c3e 3035 d6bd 962a db3d 2f88 9e3e
00000150: 1c24 2a3e 876a 4abe 422e ea3e 5f2c 63bd
00000160: 3018 97bc fe98 813c a474 93bd 7ad7 82be
00000170: e0f4 943c 7072 2abd ed40 84be dce2 0c3d
00000180: c635 16bd 04ed bb3d b698 5f3d 2228 30be
00000190: a7db e03d bd4a eebe daa3 123e 2499 2cbe
000001a0: b92b 0b3e f47e 6f3d c380 a5bd 7d10 eebd
000001b0: 0ecd 7abd 091c 92be fdc4 7cbe 5702 4bbe
000001c0: c7a4 c13c b51f 18be 390b fc3d 11bc fd3d
000001d0: 64b6 88bc 2a5d aabc f4ff 383e d8f6 b8bd
000001e0: 539f 183d cac5 1fbe fe2f 7cbb 351f 63be
000001f0: 0c22 9b3d ee43 b13d b849 3bbd 0d3a 04be
00000200: f5c3 9a3e a436 7a3d 01d4 b4be 2b71 92bd
00000210: d400 cc3c 5d96 bd3e 67fe 953e b3b0 013e
00000220: 050b 43be 5252 51be 7116 1c3e 634d 83be
00000230: c3ac 47be 8822 05bc 9e72 763e 0c18 1fbe
00000240: 5500 91ba 272d 893e 6af4 a5bd c800 38be
00000250: 2505 9c3d a219 f1bc f112 d43d 0e6f c73e
00000260: 3d05 47bd a2df 76be 8c5b 873e 0950 b03e
00000270: 71aa 973e c4ce ec3c bd82 2d3e a45a 303d
00000280: e4ce eebd 6a11 4cbe e393 e43d 31d5 24be
00000290: eaea 423e 2c77 9cbd 4aa1 9a3d 0eaa 36be
000002a0: 1059 c23c be12 fd3d f00c 4cbe 54a6 043e
000002b0: d519 c63d 5559 febd 208d 76bd d1ad 593d
000002c0: ce7f ac3d 6d64 b8bd fc36 d03d 47ea e63d
000002d0: 5225 1f3e 965f 5a3b dc34 80bd b91c f33b
000002e0: 53a8 9d3d bd45 fc3d c7f9 bb3d 074d 9a3c
000002f0: 43db cc3c 6f47 ba3e a0fb a43d ff55 6dbd
00000300: 73da 253e 5265 1f3e 17df e5bd 11bc 0a3e
00000310: 4969 c0bd 59fe 563e 4859 033e 06ca ab3c
00000320: f5e6 91bd b36b 86bd 824a 363d 0c7f a7bd
00000330: c5da e1bd dbb2 2a3e 01eb bdbc 9933 873d
00000340: 2d19 d3be ad75 84bd 1c15 4dbd e75c 903d
00000350: 13bf c6bc daba e83d 4a68 0c3d 5848 323c
00000360: e325 dcbb c9f4 0c3e 5dd3 69bc c40a dcbd
00000370: 2ea3 873d 2f71 21be afd5 92bd 4fff 843e
00000380: 23e8 11be c96a 66be e25a c93e b584 fabc
00000390: e815 5a3e 26f6 7dbe 7d94 1ebe 8015 b3bd
000003a0: d034 863e 070f 293e ac2a 41bd 7d67 ef3d
000003b0: dc1f f83b 6c72 4dbe 4ff7 47bd 3096 233e
000003c0: 12df cb3e 49d8 afbe 1cd7 f93d eed0 603c
000003d0: 9a4a c83d 648b c9be 01ad 31be 2064 10be
000003e0: 7f12 afbd a2e1 c03b 4d83 a6be f8f8 8dbd
000003f0: be84 cebd dfd2 573e 70cd c63d 633e afbe
